{"format": "graph-model", "generatedBy": "2.10.1", "convertedBy": "TensorFlow.js Converter v3.18.0", "signature": {"inputs": {"decoder_input:0": {"name": "decoder_input:0", "dtype": "DT_FLOAT", "tensorShape": {"dim": [{"size": "-1"}, {"size": "101"}]}}, "encoder_input:0": {"name": "encoder_input:0", "dtype": "DT_FLOAT", "tensorShape": {"dim": [{"size": "-1"}, {"size": "101"}]}}}, "outputs": {"output_dense": {"name": "Identity:0", "dtype": "DT_FLOAT", "tensorShape": {"dim": [{"size": "-1"}, {"size": "101"}, {"size": "30"}]}}}}, "modelTopology": {"node": [{"name": "StatefulPartitionedCall/autocorrect_seq2seq/decoder_lstm/PartitionedCall/TensorArrayV2_1/element_shape", "op": "Const", "attr": {"value": {"tensor": {"dtype": "DT_INT32", "tensorShape": {"dim": [{"size": "2"}]}}}, "dtype": {"type": "DT_INT32"}}}, {"name": "StatefulPartitionedCall/autocorrect_seq2seq/decoder_lstm/PartitionedCall/TensorArrayUnstack/TensorListFromTensor/element_shape", "op": "Const", "attr": {"value": {"tensor": {"dtype": "DT_INT32", "tensorShape": {"dim": [{"size": "2"}]}}}, "dtype": {"type": "DT_INT32"}}}, {"name": "StatefulPartitionedCall/autocorrect_seq2seq/decoder_embedding/NotEqual/y", "op": "Const", "attr": {"dtype": {"type": "DT_FLOAT"}, "value": {"tensor": {"dtype": "DT_FLOAT", "tensorShape": {}}}}}, {"name": "StatefulPartitionedCall/autocorrect_seq2seq/decoder_lstm/PartitionedCall/ExpandDims/dim", "op": "Const", "attr": {"value": {"tensor": {"dtype": "DT_INT32", "tensorShape": {}}}, "dtype": {"type": "DT_INT32"}}}, {"name": "StatefulPartitionedCall/autocorrect_seq2seq/decoder_lstm/PartitionedCall/transpose_1/perm", "op": "Const", "attr": {"value": {"tensor": {"dtype": "DT_INT32", "tensorShape": {"dim": [{"size": "3"}]}}}, "dtype": {"type": "DT_INT32"}}}, {"name": "StatefulPartitionedCall/autocorrect_seq2seq/decoder_lstm/PartitionedCall/TensorArrayUnstack_1/TensorListFromTensor/element_shape", "op": "Const", "attr": {"dtype": {"type": "DT_INT32"}, "value": {"tensor": {"dtype": "DT_INT32", "tensorShape": {"dim": [{"size": "2"}]}}}}}, {"name": "StatefulPartitionedCall/autocorrect_seq2seq/decoder_lstm/PartitionedCall/split/split_dim", "op": "Const", "attr": {"dtype": {"type": "DT_INT32"}, "value": {"tensor": {"dtype": "DT_INT32", "tensorShape": {}}}}}, {"name": "StatefulPartitionedCall/autocorrect_seq2seq/decoder_lstm/PartitionedCall/strided_slice_1/stack", "op": "Const", "attr": {"value": {"tensor": {"dtype": "DT_INT32", "tensorShape": {"dim": [{"size": "1"}]}}}, "dtype": {"type": "DT_INT32"}}}, {"name": "StatefulPartitionedCall/autocorrect_seq2seq/decoder_lstm/PartitionedCall/strided_slice_1/stack_1", "op": "Const", "attr": {"value": {"tensor": {"dtype": "DT_INT32", "tensorShape": {"dim": [{"size": "1"}]}}}, "dtype": {"type": "DT_INT32"}}}, {"name": "StatefulPartitionedCall/autocorrect_seq2seq/decoder_lstm/PartitionedCall/strided_slice_1/stack_2", "op": "Const", "attr": {"value": {"tensor": {"dtype": "DT_INT32", "tensorShape": {"dim": [{"size": "1"}]}}}, "dtype": {"type": "DT_INT32"}}}, {"name": "StatefulPartitionedCall/autocorrect_seq2seq/decoder_lstm/Read/ReadVariableOp", "op": "Const", "attr": {"value": {"tensor": {"dtype": "DT_FLOAT", "tensorShape": {"dim": [{"size": "256"}, {"size": "2048"}]}}}, "dtype": {"type": "DT_FLOAT"}}}, {"name": "StatefulPartitionedCall/autocorrect_seq2seq/encoder_lstm/zeros/packed/1", "op": "Const", "attr": {"value": {"tensor": {"dtype": "DT_INT32", "tensorShape": {}}}, "dtype": {"type": "DT_INT32"}}}, {"name": "StatefulPartitionedCall/autocorrect_seq2seq/encoder_lstm/zeros/Const", "op": "Const", "attr": {"value": {"tensor": {"dtype": "DT_FLOAT", "tensorShape": {}}}, "dtype": {"type": "DT_FLOAT"}}}, {"name": "StatefulPartitionedCall/autocorrect_seq2seq/encoder_lstm/strided_slice/stack", "op": "Const", "attr": {"value": {"tensor": {"dtype": "DT_INT32", "tensorShape": {"dim": [{"size": "1"}]}}}, "dtype": {"type": "DT_INT32"}}}, {"name": "StatefulPartitionedCall/autocorrect_seq2seq/encoder_lstm/strided_slice/stack_1", "op": "Const", "attr": {"value": {"tensor": {"dtype": "DT_INT32", "tensorShape": {"dim": [{"size": "1"}]}}}, "dtype": {"type": "DT_INT32"}}}, {"name": "StatefulPartitionedCall/autocorrect_seq2seq/encoder_lstm/strided_slice/stack_2", "op": "Const", "attr": {"value": {"tensor": {"dtype": "DT_INT32", "tensorShape": {"dim": [{"size": "1"}]}}}, "dtype": {"type": "DT_INT32"}}}, {"name": "StatefulPartitionedCall/autocorrect_seq2seq/encoder_lstm/zeros_1/packed/1", "op": "Const", "attr": {"value": {"tensor": {"dtype": "DT_INT32", "tensorShape": {}}}, "dtype": {"type": "DT_INT32"}}}, {"name": "StatefulPartitionedCall/autocorrect_seq2seq/encoder_lstm/zeros_1/Const", "op": "Const", "attr": {"value": {"tensor": {"dtype": "DT_FLOAT", "tensorShape": {}}}, "dtype": {"type": "DT_FLOAT"}}}, {"name": "StatefulPartitionedCall/autocorrect_seq2seq/encoder_embedding/NotEqual/y", "op": "Const", "attr": {"dtype": {"type": "DT_FLOAT"}, "value": {"tensor": {"dtype": "DT_FLOAT", "tensorShape": {}}}}}, {"name": "StatefulPartitionedCall/autocorrect_seq2seq/encoder_lstm/PartitionedCall/ExpandDims/dim", "op": "Const", "attr": {"value": {"tensor": {"dtype": "DT_INT32", "tensorShape": {}}}, "dtype": {"type": "DT_INT32"}}}, {"name": "StatefulPartitionedCall/autocorrect_seq2seq/encoder_lstm/PartitionedCall/transpose_1/perm", "op": "Const", "attr": {"value": {"tensor": {"dtype": "DT_INT32", "tensorShape": {"dim": [{"size": "3"}]}}}, "dtype": {"type": "DT_INT32"}}}, {"name": "StatefulPartitionedCall/autocorrect_seq2seq/encoder_lstm/PartitionedCall/TensorArrayUnstack_1/TensorListFromTensor/element_shape", "op": "Const", "attr": {"value": {"tensor": {"dtype": "DT_INT32", "tensorShape": {"dim": [{"size": "2"}]}}}, "dtype": {"type": "DT_INT32"}}}, {"name": "StatefulPartitionedCall/autocorrect_seq2seq/encoder_lstm/PartitionedCall/TensorArrayUnstack/TensorListFromTensor/element_shape", "op": "Const", "attr": {"value": {"tensor": {"dtype": "DT_INT32", "tensorShape": {"dim": [{"size": "2"}]}}}, "dtype": {"type": "DT_INT32"}}}, {"name": "StatefulPartitionedCall/autocorrect_seq2seq/encoder_lstm/Read/ReadVariableOp", "op": "Const", "attr": {"value": {"tensor": {"dtype": "DT_FLOAT", "tensorShape": {"dim": [{"size": "256"}, {"size": "2048"}]}}}, "dtype": {"type": "DT_FLOAT"}}}, {"name": "StatefulPartitionedCall/autocorrect_seq2seq/encoder_lstm/Read_1/ReadVariableOp", "op": "Const", "attr": {"dtype": {"type": "DT_FLOAT"}, "value": {"tensor": {"dtype": "DT_FLOAT", "tensorShape": {"dim": [{"size": "512"}, {"size": "2048"}]}}}}}, {"name": "StatefulPartitionedCall/autocorrect_seq2seq/encoder_lstm/Read_2/ReadVariableOp", "op": "Const", "attr": {"dtype": {"type": "DT_FLOAT"}, "value": {"tensor": {"dtype": "DT_FLOAT", "tensorShape": {"dim": [{"size": "2048"}]}}}}}, {"name": "StatefulPartitionedCall/autocorrect_seq2seq/encoder_lstm/PartitionedCall/time", "op": "Const", "attr": {"dtype": {"type": "DT_INT32"}, "value": {"tensor": {"dtype": "DT_INT32", "tensorShape": {}}}}}, {"name": "StatefulPartitionedCall/autocorrect_seq2seq/encoder_lstm/PartitionedCall/transpose/perm", "op": "Const", "attr": {"dtype": {"type": "DT_INT32"}, "value": {"tensor": {"dtype": "DT_INT32", "tensorShape": {"dim": [{"size": "3"}]}}}}}, {"name": "StatefulPartitionedCall/autocorrect_seq2seq/encoder_lstm/PartitionedCall/strided_slice/stack", "op": "Const", "attr": {"dtype": {"type": "DT_INT32"}, "value": {"tensor": {"dtype": "DT_INT32", "tensorShape": {"dim": [{"size": "1"}]}}}}}, {"name": "StatefulPartitionedCall/autocorrect_seq2seq/encoder_lstm/PartitionedCall/strided_slice/stack_1", "op": "Const", "attr": {"value": {"tensor": {"dtype": "DT_INT32", "tensorShape": {"dim": [{"size": "1"}]}}}, "dtype": {"type": "DT_INT32"}}}, {"name": "StatefulPartitionedCall/autocorrect_seq2seq/encoder_lstm/PartitionedCall/strided_slice/stack_2", "op": "Const", "attr": {"dtype": {"type": "DT_INT32"}, "value": {"tensor": {"dtype": "DT_INT32", "tensorShape": {"dim": [{"size": "1"}]}}}}}, {"name": "StatefulPartitionedCall/autocorrect_seq2seq/encoder_lstm/PartitionedCall/while/loop_counter", "op": "Const", "attr": {"dtype": {"type": "DT_INT32"}, "value": {"tensor": {"dtype": "DT_INT32", "tensorShape": {}}}}}, {"name": "StatefulPartitionedCall/autocorrect_seq2seq/decoder_lstm/Read_1/ReadVariableOp", "op": "Const", "attr": {"value": {"tensor": {"dtype": "DT_FLOAT", "tensorShape": {"dim": [{"size": "512"}, {"size": "2048"}]}}}, "dtype": {"type": "DT_FLOAT"}}}, {"name": "StatefulPartitionedCall/autocorrect_seq2seq/decoder_lstm/Read_2/ReadVariableOp", "op": "Const", "attr": {"value": {"tensor": {"dtype": "DT_FLOAT", "tensorShape": {"dim": [{"size": "2048"}]}}}, "dtype": {"type": "DT_FLOAT"}}}, {"name": "StatefulPartitionedCall/autocorrect_seq2seq/decoder_lstm/PartitionedCall/time", "op": "Const", "attr": {"dtype": {"type": "DT_INT32"}, "value": {"tensor": {"dtype": "DT_INT32", "tensorShape": {}}}}}, {"name": "StatefulPartitionedCall/autocorrect_seq2seq/decoder_lstm/PartitionedCall/transpose/perm", "op": "Const", "attr": {"value": {"tensor": {"dtype": "DT_INT32", "tensorShape": {"dim": [{"size": "3"}]}}}, "dtype": {"type": "DT_INT32"}}}, {"name": "StatefulPartitionedCall/autocorrect_seq2seq/decoder_lstm/PartitionedCall/strided_slice/stack", "op": "Const", "attr": {"dtype": {"type": "DT_INT32"}, "value": {"tensor": {"dtype": "DT_INT32", "tensorShape": {"dim": [{"size": "1"}]}}}}}, {"name": "StatefulPartitionedCall/autocorrect_seq2seq/decoder_lstm/PartitionedCall/strided_slice/stack_1", "op": "Const", "attr": {"dtype": {"type": "DT_INT32"}, "value": {"tensor": {"dtype": "DT_INT32", "tensorShape": {"dim": [{"size": "1"}]}}}}}, {"name": "StatefulPartitionedCall/autocorrect_seq2seq/decoder_lstm/PartitionedCall/strided_slice/stack_2", "op": "Const", "attr": {"dtype": {"type": "DT_INT32"}, "value": {"tensor": {"dtype": "DT_INT32", "tensorShape": {"dim": [{"size": "1"}]}}}}}, {"name": "StatefulPartitionedCall/autocorrect_seq2seq/decoder_lstm/PartitionedCall/while/loop_counter", "op": "Const", "attr": {"dtype": {"type": "DT_INT32"}, "value": {"tensor": {"dtype": "DT_INT32", "tensorShape": {}}}}}, {"name": "StatefulPartitionedCall/autocorrect_seq2seq/decoder_lstm/PartitionedCall/TensorArrayV2Stack/TensorListStack/element_shape", "op": "Const", "attr": {"dtype": {"type": "DT_INT32"}, "value": {"tensor": {"dtype": "DT_INT32", "tensorShape": {"dim": [{"size": "2"}]}}}}}, {"name": "StatefulPartitionedCall/autocorrect_seq2seq/decoder_lstm/PartitionedCall/transpose_2/perm", "op": "Const", "attr": {"value": {"tensor": {"dtype": "DT_INT32", "tensorShape": {"dim": [{"size": "3"}]}}}, "dtype": {"type": "DT_INT32"}}}, {"name": "StatefulPartitionedCall/autocorrect_seq2seq/output_dense/Reshape/shape", "op": "Const", "attr": {"dtype": {"type": "DT_INT32"}, "value": {"tensor": {"dtype": "DT_INT32", "tensorShape": {"dim": [{"size": "2"}]}}}}}, {"name": "StatefulPartitionedCall/autocorrect_seq2seq/output_dense/dense/MatMul/ReadVariableOp", "op": "Const", "attr": {"dtype": {"type": "DT_FLOAT"}, "value": {"tensor": {"dtype": "DT_FLOAT", "tensorShape": {"dim": [{"size": "512"}, {"size": "30"}]}}}}}, {"name": "StatefulPartitionedCall/autocorrect_seq2seq/output_dense/dense/BiasAdd/ReadVariableOp", "op": "Const", "attr": {"dtype": {"type": "DT_FLOAT"}, "value": {"tensor": {"dtype": "DT_FLOAT", "tensorShape": {"dim": [{"size": "30"}]}}}}}, {"name": "StatefulPartitionedCall/autocorrect_seq2seq/output_dense/Reshape_1/shape", "op": "Const", "attr": {"dtype": {"type": "DT_INT32"}, "value": {"tensor": {"dtype": "DT_INT32", "tensorShape": {"dim": [{"size": "3"}]}}}}}, {"name": "unknown_0", "op": "Const", "attr": {"dtype": {"type": "DT_FLOAT"}, "value": {"tensor": {"dtype": "DT_FLOAT", "tensorShape": {"dim": [{"size": "30"}, {"size": "256"}]}}}}}, {"name": "StatefulPartitionedCall/autocorrect_seq2seq/decoder_embedding/embedding_lookup/axis", "op": "Const", "attr": {"dtype": {"type": "DT_INT32"}, "value": {"tensor": {"dtype": "DT_INT32", "tensorShape": {}}}}}, {"name": "unknown", "op": "Const", "attr": {"dtype": {"type": "DT_FLOAT"}, "value": {"tensor": {"dtype": "DT_FLOAT", "tensorShape": {"dim": [{"size": "30"}, {"size": "256"}]}}}}}, {"name": "StatefulPartitionedCall/autocorrect_seq2seq/encoder_embedding/embedding_lookup/axis", "op": "Const", "attr": {"dtype": {"type": "DT_INT32"}, "value": {"tensor": {"dtype": "DT_INT32", "tensorShape": {}}}}}, {"name": "decoder_input", "op": "Placeholder", "attr": {"dtype": {"type": "DT_FLOAT"}, "shape": {"shape": {"dim": [{"size": "-1"}, {"size": "101"}]}}}}, {"name": "encoder_input", "op": "Placeholder", "attr": {"shape": {"shape": {"dim": [{"size": "-1"}, {"size": "101"}]}}, "dtype": {"type": "DT_FLOAT"}}}, {"name": "StatefulPartitionedCall/autocorrect_seq2seq/decoder_lstm/PartitionedCall/while/enter/_120", "op": "Enter", "input": ["StatefulPartitionedCall/autocorrect_seq2seq/decoder_lstm/Read/ReadVariableOp"], "attr": {"is_constant": {"b": false}, "T": {"type": "DT_FLOAT"}, "parallel_iterations": {"i": "32"}, "frame_name": {"s": "U3RhdGVmdWxQYXJ0aXRpb25lZENhbGwvYXV0b2NvcnJlY3Rfc2VxMnNlcS9kZWNvZGVyX2xzdG0vUGFydGl0aW9uZWRDYWxsL3doaWxl"}}}, {"name": "StatefulPartitionedCall/autocorrect_seq2seq/encoder_lstm/PartitionedCall/while/enter/_50", "op": "Enter", "input": ["StatefulPartitionedCall/autocorrect_seq2seq/encoder_lstm/Read/ReadVariableOp"], "attr": {"parallel_iterations": {"i": "32"}, "T": {"type": "DT_FLOAT"}, "frame_name": {"s": "U3RhdGVmdWxQYXJ0aXRpb25lZENhbGwvYXV0b2NvcnJlY3Rfc2VxMnNlcS9lbmNvZGVyX2xzdG0vUGFydGl0aW9uZWRDYWxsL3doaWxl"}, "is_constant": {"b": false}}}, {"name": "StatefulPartitionedCall/autocorrect_seq2seq/encoder_lstm/PartitionedCall/while/enter/_51", "op": "Enter", "input": ["StatefulPartitionedCall/autocorrect_seq2seq/encoder_lstm/Read_1/ReadVariableOp"], "attr": {"T": {"type": "DT_FLOAT"}, "is_constant": {"b": false}, "frame_name": {"s": "U3RhdGVmdWxQYXJ0aXRpb25lZENhbGwvYXV0b2NvcnJlY3Rfc2VxMnNlcS9lbmNvZGVyX2xzdG0vUGFydGl0aW9uZWRDYWxsL3doaWxl"}, "parallel_iterations": {"i": "32"}}}, {"name": "StatefulPartitionedCall/autocorrect_seq2seq/encoder_lstm/PartitionedCall/while/enter/_52", "op": "Enter", "input": ["StatefulPartitionedCall/autocorrect_seq2seq/encoder_lstm/Read_2/ReadVariableOp"], "attr": {"frame_name": {"s": "U3RhdGVmdWxQYXJ0aXRpb25lZENhbGwvYXV0b2NvcnJlY3Rfc2VxMnNlcS9lbmNvZGVyX2xzdG0vUGFydGl0aW9uZWRDYWxsL3doaWxl"}, "parallel_iterations": {"i": "32"}, "T": {"type": "DT_FLOAT"}, "is_constant": {"b": false}}}, {"name": "StatefulPartitionedCall/autocorrect_seq2seq/encoder_lstm/PartitionedCall/while/enter/_42", "op": "Enter", "input": ["StatefulPartitionedCall/autocorrect_seq2seq/encoder_lstm/PartitionedCall/time"], "attr": {"parallel_iterations": {"i": "32"}, "T": {"type": "DT_INT32"}, "frame_name": {"s": "U3RhdGVmdWxQYXJ0aXRpb25lZENhbGwvYXV0b2NvcnJlY3Rfc2VxMnNlcS9lbmNvZGVyX2xzdG0vUGFydGl0aW9uZWRDYWxsL3doaWxl"}, "is_constant": {"b": false}}}, {"name": "StatefulPartitionedCall/autocorrect_seq2seq/encoder_lstm/PartitionedCall/while/enter/_40", "op": "Enter", "input": ["StatefulPartitionedCall/autocorrect_seq2seq/encoder_lstm/PartitionedCall/while/loop_counter"], "attr": {"frame_name": {"s": "U3RhdGVmdWxQYXJ0aXRpb25lZENhbGwvYXV0b2NvcnJlY3Rfc2VxMnNlcS9lbmNvZGVyX2xzdG0vUGFydGl0aW9uZWRDYWxsL3doaWxl"}, "parallel_iterations": {"i": "32"}, "T": {"type": "DT_INT32"}, "is_constant": {"b": false}}}, {"name": "StatefulPartitionedCall/autocorrect_seq2seq/decoder_lstm/PartitionedCall/while/enter/_121", "op": "Enter", "input": ["StatefulPartitionedCall/autocorrect_seq2seq/decoder_lstm/Read_1/ReadVariableOp"], "attr": {"frame_name": {"s": "U3RhdGVmdWxQYXJ0aXRpb25lZENhbGwvYXV0b2NvcnJlY3Rfc2VxMnNlcS9kZWNvZGVyX2xzdG0vUGFydGl0aW9uZWRDYWxsL3doaWxl"}, "parallel_iterations": {"i": "32"}, "T": {"type": "DT_FLOAT"}, "is_constant": {"b": false}}}, {"name": "StatefulPartitionedCall/autocorrect_seq2seq/decoder_lstm/PartitionedCall/while/enter/_122", "op": "Enter", "input": ["StatefulPartitionedCall/autocorrect_seq2seq/decoder_lstm/Read_2/ReadVariableOp"], "attr": {"is_constant": {"b": false}, "T": {"type": "DT_FLOAT"}, "parallel_iterations": {"i": "32"}, "frame_name": {"s": "U3RhdGVmdWxQYXJ0aXRpb25lZENhbGwvYXV0b2NvcnJlY3Rfc2VxMnNlcS9kZWNvZGVyX2xzdG0vUGFydGl0aW9uZWRDYWxsL3doaWxl"}}}, {"name": "StatefulPartitionedCall/autocorrect_seq2seq/decoder_lstm/PartitionedCall/while/enter/_112", "op": "Enter", "input": ["StatefulPartitionedCall/autocorrect_seq2seq/decoder_lstm/PartitionedCall/time"], "attr": {"T": {"type": "DT_INT32"}, "is_constant": {"b": false}, "frame_name": {"s": "U3RhdGVmdWxQYXJ0aXRpb25lZENhbGwvYXV0b2NvcnJlY3Rfc2VxMnNlcS9kZWNvZGVyX2xzdG0vUGFydGl0aW9uZWRDYWxsL3doaWxl"}, "parallel_iterations": {"i": "32"}}}, {"name": "StatefulPartitionedCall/autocorrect_seq2seq/decoder_lstm/PartitionedCall/while/enter/_110", "op": "Enter", "input": ["StatefulPartitionedCall/autocorrect_seq2seq/decoder_lstm/PartitionedCall/while/loop_counter"], "attr": {"frame_name": {"s": "U3RhdGVmdWxQYXJ0aXRpb25lZENhbGwvYXV0b2NvcnJlY3Rfc2VxMnNlcS9kZWNvZGVyX2xzdG0vUGFydGl0aW9uZWRDYWxsL3doaWxl"}, "is_constant": {"b": false}, "parallel_iterations": {"i": "32"}, "T": {"type": "DT_INT32"}}}, {"name": "StatefulPartitionedCall/autocorrect_seq2seq/decoder_embedding/NotEqual", "op": "NotEqual", "input": ["decoder_input", "StatefulPartitionedCall/autocorrect_seq2seq/decoder_embedding/NotEqual/y"], "attr": {"T": {"type": "DT_FLOAT"}, "incompatible_shape_error": {"b": true}}}, {"name": "StatefulPartitionedCall/autocorrect_seq2seq/decoder_embedding/Cast", "op": "Cast", "input": ["decoder_input"], "attr": {"DstT": {"type": "DT_INT32"}, "Truncate": {"b": false}, "SrcT": {"type": "DT_FLOAT"}}}, {"name": "StatefulPartitionedCall/autocorrect_seq2seq/encoder_embedding/NotEqual", "op": "NotEqual", "input": ["encoder_input", "StatefulPartitionedCall/autocorrect_seq2seq/encoder_embedding/NotEqual/y"], "attr": {"T": {"type": "DT_FLOAT"}, "incompatible_shape_error": {"b": true}}}, {"name": "StatefulPartitionedCall/autocorrect_seq2seq/encoder_embedding/Cast", "op": "Cast", "input": ["encoder_input"], "attr": {"DstT": {"type": "DT_INT32"}, "Truncate": {"b": false}, "SrcT": {"type": "DT_FLOAT"}}}, {"name": "StatefulPartitionedCall/autocorrect_seq2seq/decoder_lstm/PartitionedCall/while/merge/_133", "op": "Merge", "input": ["StatefulPartitionedCall/autocorrect_seq2seq/decoder_lstm/PartitionedCall/while/enter/_120", "StatefulPartitionedCall/autocorrect_seq2seq/decoder_lstm/PartitionedCall/while/next_iteration/_175"], "attr": {"N": {"i": "2"}, "T": {"type": "DT_FLOAT"}}}, {"name": "StatefulPartitionedCall/autocorrect_seq2seq/encoder_lstm/PartitionedCall/while/merge/_63", "op": "Merge", "input": ["StatefulPartitionedCall/autocorrect_seq2seq/encoder_lstm/PartitionedCall/while/enter/_50", "StatefulPartitionedCall/autocorrect_seq2seq/encoder_lstm/PartitionedCall/while/next_iteration/_105"], "attr": {"N": {"i": "2"}, "T": {"type": "DT_FLOAT"}}}, {"name": "StatefulPartitionedCall/autocorrect_seq2seq/encoder_lstm/PartitionedCall/while/merge/_64", "op": "Merge", "input": ["StatefulPartitionedCall/autocorrect_seq2seq/encoder_lstm/PartitionedCall/while/enter/_51", "StatefulPartitionedCall/autocorrect_seq2seq/encoder_lstm/PartitionedCall/while/next_iteration/_106"], "attr": {"T": {"type": "DT_FLOAT"}, "N": {"i": "2"}}}, {"name": "StatefulPartitionedCall/autocorrect_seq2seq/encoder_lstm/PartitionedCall/while/merge/_65", "op": "Merge", "input": ["StatefulPartitionedCall/autocorrect_seq2seq/encoder_lstm/PartitionedCall/while/enter/_52", "StatefulPartitionedCall/autocorrect_seq2seq/encoder_lstm/PartitionedCall/while/next_iteration/_107"], "attr": {"T": {"type": "DT_FLOAT"}, "N": {"i": "2"}}}, {"name": "StatefulPartitionedCall/autocorrect_seq2seq/encoder_lstm/PartitionedCall/while/merge/_55", "op": "Merge", "input": ["StatefulPartitionedCall/autocorrect_seq2seq/encoder_lstm/PartitionedCall/while/enter/_42", "StatefulPartitionedCall/autocorrect_seq2seq/encoder_lstm/PartitionedCall/while/next_iteration/_97"], "attr": {"N": {"i": "2"}, "T": {"type": "DT_INT32"}}}, {"name": "StatefulPartitionedCall/autocorrect_seq2seq/encoder_lstm/PartitionedCall/while/merge/_53", "op": "Merge", "input": ["StatefulPartitionedCall/autocorrect_seq2seq/encoder_lstm/PartitionedCall/while/enter/_40", "StatefulPartitionedCall/autocorrect_seq2seq/encoder_lstm/PartitionedCall/while/next_iteration/_95"], "attr": {"N": {"i": "2"}, "T": {"type": "DT_INT32"}}}, {"name": "StatefulPartitionedCall/autocorrect_seq2seq/decoder_lstm/PartitionedCall/while/merge/_134", "op": "Merge", "input": ["StatefulPartitionedCall/autocorrect_seq2seq/decoder_lstm/PartitionedCall/while/enter/_121", "StatefulPartitionedCall/autocorrect_seq2seq/decoder_lstm/PartitionedCall/while/next_iteration/_176"], "attr": {"T": {"type": "DT_FLOAT"}, "N": {"i": "2"}}}, {"name": "StatefulPartitionedCall/autocorrect_seq2seq/decoder_lstm/PartitionedCall/while/merge/_135", "op": "Merge", "input": ["StatefulPartitionedCall/autocorrect_seq2seq/decoder_lstm/PartitionedCall/while/enter/_122", "StatefulPartitionedCall/autocorrect_seq2seq/decoder_lstm/PartitionedCall/while/next_iteration/_177"], "attr": {"N": {"i": "2"}, "T": {"type": "DT_FLOAT"}}}, {"name": "StatefulPartitionedCall/autocorrect_seq2seq/decoder_lstm/PartitionedCall/while/merge/_125", "op": "Merge", "input": ["StatefulPartitionedCall/autocorrect_seq2seq/decoder_lstm/PartitionedCall/while/enter/_112", "StatefulPartitionedCall/autocorrect_seq2seq/decoder_lstm/PartitionedCall/while/next_iteration/_167"], "attr": {"T": {"type": "DT_INT32"}, "N": {"i": "2"}}}, {"name": "StatefulPartitionedCall/autocorrect_seq2seq/decoder_lstm/PartitionedCall/while/merge/_123", "op": "Merge", "input": ["StatefulPartitionedCall/autocorrect_seq2seq/decoder_lstm/PartitionedCall/while/enter/_110", "StatefulPartitionedCall/autocorrect_seq2seq/decoder_lstm/PartitionedCall/while/next_iteration/_165"], "attr": {"N": {"i": "2"}, "T": {"type": "DT_INT32"}}}, {"name": "StatefulPartitionedCall/autocorrect_seq2seq/decoder_lstm/PartitionedCall/ExpandDims", "op": "ExpandDims", "input": ["StatefulPartitionedCall/autocorrect_seq2seq/decoder_embedding/NotEqual", "StatefulPartitionedCall/autocorrect_seq2seq/decoder_lstm/PartitionedCall/ExpandDims/dim"], "attr": {"Tdim": {"type": "DT_INT32"}, "T": {"type": "DT_BOOL"}}}, {"name": "StatefulPartitionedCall/autocorrect_seq2seq/decoder_embedding/embedding_lookup", "op": "GatherV2", "input": ["unknown_0", "StatefulPartitionedCall/autocorrect_seq2seq/decoder_embedding/Cast", "StatefulPartitionedCall/autocorrect_seq2seq/decoder_embedding/embedding_lookup/axis"], "attr": {"Tindices": {"type": "DT_INT32"}, "batch_dims": {"i": "0"}, "Taxis": {"type": "DT_INT32"}, "Tparams": {"type": "DT_FLOAT"}}}, {"name": "StatefulPartitionedCall/autocorrect_seq2seq/encoder_lstm/PartitionedCall/ExpandDims", "op": "ExpandDims", "input": ["StatefulPartitionedCall/autocorrect_seq2seq/encoder_embedding/NotEqual", "StatefulPartitionedCall/autocorrect_seq2seq/encoder_lstm/PartitionedCall/ExpandDims/dim"], "attr": {"T": {"type": "DT_BOOL"}, "Tdim": {"type": "DT_INT32"}}}, {"name": "StatefulPartitionedCall/autocorrect_seq2seq/encoder_embedding/embedding_lookup", "op": "GatherV2", "input": ["unknown", "StatefulPartitionedCall/autocorrect_seq2seq/encoder_embedding/Cast", "StatefulPartitionedCall/autocorrect_seq2seq/encoder_embedding/embedding_lookup/axis"], "attr": {"Tparams": {"type": "DT_FLOAT"}, "batch_dims": {"i": "0"}, "Tindices": {"type": "DT_INT32"}, "Taxis": {"type": "DT_INT32"}}}, {"name": "StatefulPartitionedCall/autocorrect_seq2seq/decoder_lstm/PartitionedCall/transpose_1", "op": "Transpose", "input": ["StatefulPartitionedCall/autocorrect_seq2seq/decoder_lstm/PartitionedCall/ExpandDims", "StatefulPartitionedCall/autocorrect_seq2seq/decoder_lstm/PartitionedCall/transpose_1/perm"], "attr": {"Tperm": {"type": "DT_INT32"}, "T": {"type": "DT_BOOL"}}}, {"name": "StatefulPartitionedCall/autocorrect_seq2seq/decoder_lstm/PartitionedCall/transpose", "op": "Transpose", "input": ["StatefulPartitionedCall/autocorrect_seq2seq/decoder_embedding/embedding_lookup", "StatefulPartitionedCall/autocorrect_seq2seq/decoder_lstm/PartitionedCall/transpose/perm"], "attr": {"T": {"type": "DT_FLOAT"}, "Tperm": {"type": "DT_INT32"}}}, {"name": "StatefulPartitionedCall/autocorrect_seq2seq/encoder_lstm/PartitionedCall/transpose_1", "op": "Transpose", "input": ["StatefulPartitionedCall/autocorrect_seq2seq/encoder_lstm/PartitionedCall/ExpandDims", "StatefulPartitionedCall/autocorrect_seq2seq/encoder_lstm/PartitionedCall/transpose_1/perm"], "attr": {"T": {"type": "DT_BOOL"}, "Tperm": {"type": "DT_INT32"}}}, {"name": "StatefulPartitionedCall/autocorrect_seq2seq/encoder_lstm/Shape", "op": "Shape", "input": ["StatefulPartitionedCall/autocorrect_seq2seq/encoder_embedding/embedding_lookup"], "attr": {"T": {"type": "DT_FLOAT"}, "out_type": {"type": "DT_INT32"}}}, {"name": "StatefulPartitionedCall/autocorrect_seq2seq/encoder_lstm/PartitionedCall/transpose", "op": "Transpose", "input": ["StatefulPartitionedCall/autocorrect_seq2seq/encoder_embedding/embedding_lookup", "StatefulPartitionedCall/autocorrect_seq2seq/encoder_lstm/PartitionedCall/transpose/perm"], "attr": {"T": {"type": "DT_FLOAT"}, "Tperm": {"type": "DT_INT32"}}}, {"name": "StatefulPartitionedCall/autocorrect_seq2seq/decoder_lstm/PartitionedCall/TensorArrayUnstack_1/TensorListFromTensor", "op": "TensorListFromTensor", "input": ["StatefulPartitionedCall/autocorrect_seq2seq/decoder_lstm/PartitionedCall/transpose_1", "StatefulPartitionedCall/autocorrect_seq2seq/decoder_lstm/PartitionedCall/TensorArrayUnstack_1/TensorListFromTensor/element_shape"], "attr": {"shape_type": {"type": "DT_INT32"}, "element_dtype": {"type": "DT_BOOL"}}, "experimentalType": {"typeId": "TFT_PRODUCT", "args": [{"typeId": "TFT_ARRAY", "args": [{"typeId": "TFT_TENSOR", "args": [{"typeId": "TFT_BOOL"}]}]}]}}, {"name": "StatefulPartitionedCall/autocorrect_seq2seq/decoder_lstm/PartitionedCall/TensorArrayUnstack/TensorListFromTensor", "op": "TensorListFromTensor", "input": ["StatefulPartitionedCall/autocorrect_seq2seq/decoder_lstm/PartitionedCall/transpose", "StatefulPartitionedCall/autocorrect_seq2seq/decoder_lstm/PartitionedCall/TensorArrayUnstack/TensorListFromTensor/element_shape"], "attr": {"element_dtype": {"type": "DT_FLOAT"}, "shape_type": {"type": "DT_INT32"}}, "experimentalType": {"typeId": "TFT_PRODUCT", "args": [{"typeId": "TFT_ARRAY", "args": [{"typeId": "TFT_TENSOR", "args": [{"typeId": "TFT_FLOAT"}]}]}]}}, {"name": "StatefulPartitionedCall/autocorrect_seq2seq/decoder_lstm/PartitionedCall/strided_slice_1", "op": "StridedSlice", "input": ["StatefulPartitionedCall/autocorrect_seq2seq/decoder_lstm/PartitionedCall/transpose", "StatefulPartitionedCall/autocorrect_seq2seq/decoder_lstm/PartitionedCall/strided_slice_1/stack", "StatefulPartitionedCall/autocorrect_seq2seq/decoder_lstm/PartitionedCall/strided_slice_1/stack_1", "StatefulPartitionedCall/autocorrect_seq2seq/decoder_lstm/PartitionedCall/strided_slice_1/stack_2"], "attr": {"T": {"type": "DT_FLOAT"}, "new_axis_mask": {"i": "0"}, "shrink_axis_mask": {"i": "1"}, "begin_mask": {"i": "0"}, "ellipsis_mask": {"i": "0"}, "Index": {"type": "DT_INT32"}, "end_mask": {"i": "0"}}}, {"name": "StatefulPartitionedCall/autocorrect_seq2seq/decoder_lstm/PartitionedCall/Shape", "op": "Shape", "input": ["StatefulPartitionedCall/autocorrect_seq2seq/decoder_lstm/PartitionedCall/transpose"], "attr": {"out_type": {"type": "DT_INT32"}, "T": {"type": "DT_FLOAT"}}}, {"name": "StatefulPartitionedCall/autocorrect_seq2seq/encoder_lstm/PartitionedCall/TensorArrayUnstack_1/TensorListFromTensor", "op": "TensorListFromTensor", "input": ["StatefulPartitionedCall/autocorrect_seq2seq/encoder_lstm/PartitionedCall/transpose_1", "StatefulPartitionedCall/autocorrect_seq2seq/encoder_lstm/PartitionedCall/TensorArrayUnstack_1/TensorListFromTensor/element_shape"], "attr": {"element_dtype": {"type": "DT_BOOL"}, "shape_type": {"type": "DT_INT32"}}, "experimentalType": {"typeId": "TFT_PRODUCT", "args": [{"typeId": "TFT_ARRAY", "args": [{"typeId": "TFT_TENSOR", "args": [{"typeId": "TFT_BOOL"}]}]}]}}, {"name": "StatefulPartitionedCall/autocorrect_seq2seq/encoder_lstm/strided_slice", "op": "StridedSlice", "input": ["StatefulPartitionedCall/autocorrect_seq2seq/encoder_lstm/Shape", "StatefulPartitionedCall/autocorrect_seq2seq/encoder_lstm/strided_slice/stack", "StatefulPartitionedCall/autocorrect_seq2seq/encoder_lstm/strided_slice/stack_1", "StatefulPartitionedCall/autocorrect_seq2seq/encoder_lstm/strided_slice/stack_2"], "attr": {"begin_mask": {"i": "0"}, "T": {"type": "DT_INT32"}, "Index": {"type": "DT_INT32"}, "new_axis_mask": {"i": "0"}, "ellipsis_mask": {"i": "0"}, "end_mask": {"i": "0"}, "shrink_axis_mask": {"i": "1"}}}, {"name": "StatefulPartitionedCall/autocorrect_seq2seq/encoder_lstm/PartitionedCall/TensorArrayUnstack/TensorListFromTensor", "op": "TensorListFromTensor", "input": ["StatefulPartitionedCall/autocorrect_seq2seq/encoder_lstm/PartitionedCall/transpose", "StatefulPartitionedCall/autocorrect_seq2seq/encoder_lstm/PartitionedCall/TensorArrayUnstack/TensorListFromTensor/element_shape"], "attr": {"shape_type": {"type": "DT_INT32"}, "element_dtype": {"type": "DT_FLOAT"}}, "experimentalType": {"typeId": "TFT_PRODUCT", "args": [{"typeId": "TFT_ARRAY", "args": [{"typeId": "TFT_TENSOR", "args": [{"typeId": "TFT_FLOAT"}]}]}]}}, {"name": "StatefulPartitionedCall/autocorrect_seq2seq/encoder_lstm/PartitionedCall/Shape", "op": "Shape", "input": ["StatefulPartitionedCall/autocorrect_seq2seq/encoder_lstm/PartitionedCall/transpose"], "attr": {"T": {"type": "DT_FLOAT"}, "out_type": {"type": "DT_INT32"}}}, {"name": "StatefulPartitionedCall/autocorrect_seq2seq/decoder_lstm/PartitionedCall/while/enter/_119", "op": "Enter", "input": ["StatefulPartitionedCall/autocorrect_seq2seq/decoder_lstm/PartitionedCall/TensorArrayUnstack_1/TensorListFromTensor"], "attr": {"parallel_iterations": {"i": "32"}, "frame_name": {"s": "U3RhdGVmdWxQYXJ0aXRpb25lZENhbGwvYXV0b2NvcnJlY3Rfc2VxMnNlcS9kZWNvZGVyX2xzdG0vUGFydGl0aW9uZWRDYWxsL3doaWxl"}, "is_constant": {"b": false}, "T": {"type": "DT_VARIANT"}}}, {"name": "StatefulPartitionedCall/autocorrect_seq2seq/decoder_lstm/PartitionedCall/while/enter/_118", "op": "Enter", "input": ["StatefulPartitionedCall/autocorrect_seq2seq/decoder_lstm/PartitionedCall/TensorArrayUnstack/TensorListFromTensor"], "attr": {"frame_name": {"s": "U3RhdGVmdWxQYXJ0aXRpb25lZENhbGwvYXV0b2NvcnJlY3Rfc2VxMnNlcS9kZWNvZGVyX2xzdG0vUGFydGl0aW9uZWRDYWxsL3doaWxl"}, "is_constant": {"b": false}, "parallel_iterations": {"i": "32"}, "T": {"type": "DT_VARIANT"}}}, {"name": "StatefulPartitionedCall/autocorrect_seq2seq/decoder_lstm/PartitionedCall/MatMul", "op": "MatMul", "input": ["StatefulPartitionedCall/autocorrect_seq2seq/decoder_lstm/PartitionedCall/strided_slice_1", "StatefulPartitionedCall/autocorrect_seq2seq/decoder_lstm/Read/ReadVariableOp"], "device": "/device:CPU:0", "attr": {"transpose_b": {"b": false}, "T": {"type": "DT_FLOAT"}, "transpose_a": {"b": false}}}, {"name": "StatefulPartitionedCall/autocorrect_seq2seq/decoder_lstm/PartitionedCall/strided_slice", "op": "StridedSlice", "input": ["StatefulPartitionedCall/autocorrect_seq2seq/decoder_lstm/PartitionedCall/Shape", "StatefulPartitionedCall/autocorrect_seq2seq/decoder_lstm/PartitionedCall/strided_slice/stack", "StatefulPartitionedCall/autocorrect_seq2seq/decoder_lstm/PartitionedCall/strided_slice/stack_1", "StatefulPartitionedCall/autocorrect_seq2seq/decoder_lstm/PartitionedCall/strided_slice/stack_2"], "attr": {"ellipsis_mask": {"i": "0"}, "shrink_axis_mask": {"i": "1"}, "Index": {"type": "DT_INT32"}, "end_mask": {"i": "0"}, "new_axis_mask": {"i": "0"}, "begin_mask": {"i": "0"}, "T": {"type": "DT_INT32"}}}, {"name": "StatefulPartitionedCall/autocorrect_seq2seq/encoder_lstm/PartitionedCall/while/enter/_49", "op": "Enter", "input": ["StatefulPartitionedCall/autocorrect_seq2seq/encoder_lstm/PartitionedCall/TensorArrayUnstack_1/TensorListFromTensor"], "attr": {"T": {"type": "DT_VARIANT"}, "frame_name": {"s": "U3RhdGVmdWxQYXJ0aXRpb25lZENhbGwvYXV0b2NvcnJlY3Rfc2VxMnNlcS9lbmNvZGVyX2xzdG0vUGFydGl0aW9uZWRDYWxsL3doaWxl"}, "parallel_iterations": {"i": "32"}, "is_constant": {"b": false}}}, {"name": "StatefulPartitionedCall/autocorrect_seq2seq/encoder_lstm/zeros/packed", "op": "Pack", "input": ["StatefulPartitionedCall/autocorrect_seq2seq/encoder_lstm/strided_slice", "StatefulPartitionedCall/autocorrect_seq2seq/encoder_lstm/zeros/packed/1"], "attr": {"T": {"type": "DT_INT32"}, "N": {"i": "2"}, "axis": {"i": "0"}}}, {"name": "StatefulPartitionedCall/autocorrect_seq2seq/encoder_lstm/zeros_1/packed", "op": "Pack", "input": ["StatefulPartitionedCall/autocorrect_seq2seq/encoder_lstm/strided_slice", "StatefulPartitionedCall/autocorrect_seq2seq/encoder_lstm/zeros_1/packed/1"], "attr": {"axis": {"i": "0"}, "N": {"i": "2"}, "T": {"type": "DT_INT32"}}}, {"name": "StatefulPartitionedCall/autocorrect_seq2seq/encoder_lstm/PartitionedCall/while/enter/_48", "op": "Enter", "input": ["StatefulPartitionedCall/autocorrect_seq2seq/encoder_lstm/PartitionedCall/TensorArrayUnstack/TensorListFromTensor"], "attr": {"parallel_iterations": {"i": "32"}, "frame_name": {"s": "U3RhdGVmdWxQYXJ0aXRpb25lZENhbGwvYXV0b2NvcnJlY3Rfc2VxMnNlcS9lbmNvZGVyX2xzdG0vUGFydGl0aW9uZWRDYWxsL3doaWxl"}, "is_constant": {"b": false}, "T": {"type": "DT_VARIANT"}}}, {"name": "StatefulPartitionedCall/autocorrect_seq2seq/encoder_lstm/PartitionedCall/strided_slice", "op": "StridedSlice", "input": ["StatefulPartitionedCall/autocorrect_seq2seq/encoder_lstm/PartitionedCall/Shape", "StatefulPartitionedCall/autocorrect_seq2seq/encoder_lstm/PartitionedCall/strided_slice/stack", "StatefulPartitionedCall/autocorrect_seq2seq/encoder_lstm/PartitionedCall/strided_slice/stack_1", "StatefulPartitionedCall/autocorrect_seq2seq/encoder_lstm/PartitionedCall/strided_slice/stack_2"], "attr": {"shrink_axis_mask": {"i": "1"}, "Index": {"type": "DT_INT32"}, "end_mask": {"i": "0"}, "new_axis_mask": {"i": "0"}, "begin_mask": {"i": "0"}, "ellipsis_mask": {"i": "0"}, "T": {"type": "DT_INT32"}}}, {"name": "StatefulPartitionedCall/autocorrect_seq2seq/decoder_lstm/PartitionedCall/while/merge/_132", "op": "Merge", "input": ["StatefulPartitionedCall/autocorrect_seq2seq/decoder_lstm/PartitionedCall/while/enter/_119", "StatefulPartitionedCall/autocorrect_seq2seq/decoder_lstm/PartitionedCall/while/next_iteration/_174"], "attr": {"T": {"type": "DT_VARIANT"}, "N": {"i": "2"}}}, {"name": "StatefulPartitionedCall/autocorrect_seq2seq/decoder_lstm/PartitionedCall/while/merge/_131", "op": "Merge", "input": ["StatefulPartitionedCall/autocorrect_seq2seq/decoder_lstm/PartitionedCall/while/enter/_118", "StatefulPartitionedCall/autocorrect_seq2seq/decoder_lstm/PartitionedCall/while/next_iteration/_173"], "attr": {"N": {"i": "2"}, "T": {"type": "DT_VARIANT"}}}, {"name": "StatefulPartitionedCall/autocorrect_seq2seq/decoder_lstm/PartitionedCall/TensorArrayV2_1", "op": "TensorListReserve", "input": ["StatefulPartitionedCall/autocorrect_seq2seq/decoder_lstm/PartitionedCall/TensorArrayV2_1/element_shape", "StatefulPartitionedCall/autocorrect_seq2seq/decoder_lstm/PartitionedCall/strided_slice"], "attr": {"element_dtype": {"type": "DT_FLOAT"}, "shape_type": {"type": "DT_INT32"}}, "experimentalType": {"typeId": "TFT_PRODUCT", "args": [{"typeId": "TFT_ARRAY", "args": [{"typeId": "TFT_TENSOR", "args": [{"typeId": "TFT_FLOAT"}]}]}]}}, {"name": "StatefulPartitionedCall/autocorrect_seq2seq/decoder_lstm/PartitionedCall/while/enter/_117", "op": "Enter", "input": ["StatefulPartitionedCall/autocorrect_seq2seq/decoder_lstm/PartitionedCall/strided_slice"], "attr": {"is_constant": {"b": false}, "T": {"type": "DT_INT32"}, "frame_name": {"s": "U3RhdGVmdWxQYXJ0aXRpb25lZENhbGwvYXV0b2NvcnJlY3Rfc2VxMnNlcS9kZWNvZGVyX2xzdG0vUGFydGl0aW9uZWRDYWxsL3doaWxl"}, "parallel_iterations": {"i": "32"}}}, {"name": "StatefulPartitionedCall/autocorrect_seq2seq/encoder_lstm/PartitionedCall/while/merge/_62", "op": "Merge", "input": ["StatefulPartitionedCall/autocorrect_seq2seq/encoder_lstm/PartitionedCall/while/enter/_49", "StatefulPartitionedCall/autocorrect_seq2seq/encoder_lstm/PartitionedCall/while/next_iteration/_104"], "attr": {"N": {"i": "2"}, "T": {"type": "DT_VARIANT"}}}, {"name": "StatefulPartitionedCall/autocorrect_seq2seq/encoder_lstm/zeros", "op": "Fill", "input": ["StatefulPartitionedCall/autocorrect_seq2seq/encoder_lstm/zeros/packed", "StatefulPartitionedCall/autocorrect_seq2seq/encoder_lstm/zeros/Const"], "attr": {"index_type": {"type": "DT_INT32"}, "T": {"type": "DT_FLOAT"}}}, {"name": "StatefulPartitionedCall/autocorrect_seq2seq/encoder_lstm/zeros_1", "op": "Fill", "input": ["StatefulPartitionedCall/autocorrect_seq2seq/encoder_lstm/zeros_1/packed", "StatefulPartitionedCall/autocorrect_seq2seq/encoder_lstm/zeros_1/Const"], "attr": {"index_type": {"type": "DT_INT32"}, "T": {"type": "DT_FLOAT"}}}, {"name": "StatefulPartitionedCall/autocorrect_seq2seq/encoder_lstm/PartitionedCall/while/merge/_61", "op": "Merge", "input": ["StatefulPartitionedCall/autocorrect_seq2seq/encoder_lstm/PartitionedCall/while/enter/_48", "StatefulPartitionedCall/autocorrect_seq2seq/encoder_lstm/PartitionedCall/while/next_iteration/_103"], "attr": {"T": {"type": "DT_VARIANT"}, "N": {"i": "2"}}}, {"name": "StatefulPartitionedCall/autocorrect_seq2seq/encoder_lstm/PartitionedCall/while/enter/_47", "op": "Enter", "input": ["StatefulPartitionedCall/autocorrect_seq2seq/encoder_lstm/PartitionedCall/strided_slice"], "attr": {"is_constant": {"b": false}, "frame_name": {"s": "U3RhdGVmdWxQYXJ0aXRpb25lZENhbGwvYXV0b2NvcnJlY3Rfc2VxMnNlcS9lbmNvZGVyX2xzdG0vUGFydGl0aW9uZWRDYWxsL3doaWxl"}, "parallel_iterations": {"i": "32"}, "T": {"type": "DT_INT32"}}}, {"name": "StatefulPartitionedCall/autocorrect_seq2seq/decoder_lstm/PartitionedCall/while/enter/_113", "op": "Enter", "input": ["StatefulPartitionedCall/autocorrect_seq2seq/decoder_lstm/PartitionedCall/TensorArrayV2_1"], "attr": {"is_constant": {"b": false}, "T": {"type": "DT_VARIANT"}, "parallel_iterations": {"i": "32"}, "frame_name": {"s": "U3RhdGVmdWxQYXJ0aXRpb25lZENhbGwvYXV0b2NvcnJlY3Rfc2VxMnNlcS9kZWNvZGVyX2xzdG0vUGFydGl0aW9uZWRDYWxsL3doaWxl"}}}, {"name": "StatefulPartitionedCall/autocorrect_seq2seq/decoder_lstm/PartitionedCall/while/merge/_130", "op": "Merge", "input": ["StatefulPartitionedCall/autocorrect_seq2seq/decoder_lstm/PartitionedCall/while/enter/_117", "StatefulPartitionedCall/autocorrect_seq2seq/decoder_lstm/PartitionedCall/while/next_iteration/_172"], "attr": {"N": {"i": "2"}, "T": {"type": "DT_INT32"}}}, {"name": "StatefulPartitionedCall/autocorrect_seq2seq/encoder_lstm/PartitionedCall/while/enter/_45", "op": "Enter", "input": ["StatefulPartitionedCall/autocorrect_seq2seq/encoder_lstm/zeros"], "attr": {"parallel_iterations": {"i": "32"}, "T": {"type": "DT_FLOAT"}, "frame_name": {"s": "U3RhdGVmdWxQYXJ0aXRpb25lZENhbGwvYXV0b2NvcnJlY3Rfc2VxMnNlcS9lbmNvZGVyX2xzdG0vUGFydGl0aW9uZWRDYWxsL3doaWxl"}, "is_constant": {"b": false}}}, {"name": "StatefulPartitionedCall/autocorrect_seq2seq/encoder_lstm/PartitionedCall/while/enter/_46", "op": "Enter", "input": ["StatefulPartitionedCall/autocorrect_seq2seq/encoder_lstm/zeros_1"], "attr": {"T": {"type": "DT_FLOAT"}, "frame_name": {"s": "U3RhdGVmdWxQYXJ0aXRpb25lZENhbGwvYXV0b2NvcnJlY3Rfc2VxMnNlcS9lbmNvZGVyX2xzdG0vUGFydGl0aW9uZWRDYWxsL3doaWxl"}, "is_constant": {"b": false}, "parallel_iterations": {"i": "32"}}}, {"name": "StatefulPartitionedCall/autocorrect_seq2seq/encoder_lstm/PartitionedCall/while/merge/_60", "op": "Merge", "input": ["StatefulPartitionedCall/autocorrect_seq2seq/encoder_lstm/PartitionedCall/while/enter/_47", "StatefulPartitionedCall/autocorrect_seq2seq/encoder_lstm/PartitionedCall/while/next_iteration/_102"], "attr": {"N": {"i": "2"}, "T": {"type": "DT_INT32"}}}, {"name": "StatefulPartitionedCall/autocorrect_seq2seq/decoder_lstm/PartitionedCall/while/merge/_126", "op": "Merge", "input": ["StatefulPartitionedCall/autocorrect_seq2seq/decoder_lstm/PartitionedCall/while/enter/_113", "StatefulPartitionedCall/autocorrect_seq2seq/decoder_lstm/PartitionedCall/while/next_iteration/_168"], "attr": {"N": {"i": "2"}, "T": {"type": "DT_VARIANT"}}}, {"name": "StatefulPartitionedCall/autocorrect_seq2seq/decoder_lstm/PartitionedCall/while/cond/_108/while/Less", "op": "Less", "input": ["StatefulPartitionedCall/autocorrect_seq2seq/decoder_lstm/PartitionedCall/while/merge/_125", "StatefulPartitionedCall/autocorrect_seq2seq/decoder_lstm/PartitionedCall/while/merge/_130", "^StatefulPartitionedCall/autocorrect_seq2seq/decoder_lstm/PartitionedCall/while/merge/_123"], "attr": {"T": {"type": "DT_INT32"}}}, {"name": "StatefulPartitionedCall/autocorrect_seq2seq/encoder_lstm/PartitionedCall/while/merge/_58", "op": "Merge", "input": ["StatefulPartitionedCall/autocorrect_seq2seq/encoder_lstm/PartitionedCall/while/enter/_45", "StatefulPartitionedCall/autocorrect_seq2seq/encoder_lstm/PartitionedCall/while/next_iteration/_100"], "attr": {"T": {"type": "DT_FLOAT"}, "N": {"i": "2"}}}, {"name": "StatefulPartitionedCall/autocorrect_seq2seq/encoder_lstm/PartitionedCall/while/merge/_59", "op": "Merge", "input": ["StatefulPartitionedCall/autocorrect_seq2seq/encoder_lstm/PartitionedCall/while/enter/_46", "StatefulPartitionedCall/autocorrect_seq2seq/encoder_lstm/PartitionedCall/while/next_iteration/_101"], "attr": {"T": {"type": "DT_FLOAT"}, "N": {"i": "2"}}}, {"name": "StatefulPartitionedCall/autocorrect_seq2seq/encoder_lstm/PartitionedCall/while/cond/_38/while/Less", "op": "Less", "input": ["StatefulPartitionedCall/autocorrect_seq2seq/encoder_lstm/PartitionedCall/while/merge/_55", "StatefulPartitionedCall/autocorrect_seq2seq/encoder_lstm/PartitionedCall/while/merge/_60", "^StatefulPartitionedCall/autocorrect_seq2seq/encoder_lstm/PartitionedCall/while/merge/_53"], "attr": {"T": {"type": "DT_INT32"}}}, {"name": "StatefulPartitionedCall/autocorrect_seq2seq/decoder_lstm/PartitionedCall/while/LoopCond/_136", "op": "LoopCond", "input": ["StatefulPartitionedCall/autocorrect_seq2seq/decoder_lstm/PartitionedCall/while/cond/_108/while/Less"]}, {"name": "StatefulPartitionedCall/autocorrect_seq2seq/encoder_lstm/PartitionedCall/while/LoopCond/_66", "op": "LoopCond", "input": ["StatefulPartitionedCall/autocorrect_seq2seq/encoder_lstm/PartitionedCall/while/cond/_38/while/Less"]}, {"name": "StatefulPartitionedCall/autocorrect_seq2seq/decoder_lstm/PartitionedCall/while/StatefulPartitionedCall/autocorrect_seq2seq/decoder_lstm/PartitionedCall/TensorArrayUnstack/TensorListFromTensor_switch/_145", "op": "Switch", "input": ["StatefulPartitionedCall/autocorrect_seq2seq/decoder_lstm/PartitionedCall/while/merge/_131", "StatefulPartitionedCall/autocorrect_seq2seq/decoder_lstm/PartitionedCall/while/LoopCond/_136"], "attr": {"T": {"type": "DT_VARIANT"}}}, {"name": "StatefulPartitionedCall/autocorrect_seq2seq/decoder_lstm/PartitionedCall/while/Func/StatefulPartitionedCall/autocorrect_seq2seq/decoder_lstm/PartitionedCall/input/_29_switch/_147", "op": "Switch", "input": ["StatefulPartitionedCall/autocorrect_seq2seq/decoder_lstm/PartitionedCall/while/merge/_133", "StatefulPartitionedCall/autocorrect_seq2seq/decoder_lstm/PartitionedCall/while/LoopCond/_136"], "attr": {"T": {"type": "DT_FLOAT"}}}, {"name": "StatefulPartitionedCall/autocorrect_seq2seq/decoder_lstm/PartitionedCall/while/StatefulPartitionedCall/autocorrect_seq2seq/decoder_lstm/PartitionedCall/TensorArrayUnstack_1/TensorListFromTensor_switch/_146", "op": "Switch", "input": ["StatefulPartitionedCall/autocorrect_seq2seq/decoder_lstm/PartitionedCall/while/merge/_132", "StatefulPartitionedCall/autocorrect_seq2seq/decoder_lstm/PartitionedCall/while/LoopCond/_136"], "attr": {"T": {"type": "DT_VARIANT"}}}, {"name": "StatefulPartitionedCall/autocorrect_seq2seq/decoder_lstm/PartitionedCall/while/Func/StatefulPartitionedCall/autocorrect_seq2seq/decoder_lstm/PartitionedCall/input/_30_switch/_148", "op": "Switch", "input": ["StatefulPartitionedCall/autocorrect_seq2seq/decoder_lstm/PartitionedCall/while/merge/_134", "StatefulPartitionedCall/autocorrect_seq2seq/decoder_lstm/PartitionedCall/while/LoopCond/_136"], "attr": {"T": {"type": "DT_FLOAT"}}}, {"name": "StatefulPartitionedCall/autocorrect_seq2seq/decoder_lstm/PartitionedCall/while/Func/StatefulPartitionedCall/autocorrect_seq2seq/decoder_lstm/PartitionedCall/input/_31_switch/_149", "op": "Switch", "input": ["StatefulPartitionedCall/autocorrect_seq2seq/decoder_lstm/PartitionedCall/while/merge/_135", "StatefulPartitionedCall/autocorrect_seq2seq/decoder_lstm/PartitionedCall/while/LoopCond/_136"], "attr": {"T": {"type": "DT_FLOAT"}}}, {"name": "StatefulPartitionedCall/autocorrect_seq2seq/decoder_lstm/PartitionedCall/while/StatefulPartitionedCall/autocorrect_seq2seq/decoder_lstm/PartitionedCall/time_switch/_139", "op": "Switch", "input": ["StatefulPartitionedCall/autocorrect_seq2seq/decoder_lstm/PartitionedCall/while/merge/_125", "StatefulPartitionedCall/autocorrect_seq2seq/decoder_lstm/PartitionedCall/while/LoopCond/_136"], "attr": {"T": {"type": "DT_INT32"}}}, {"name": "StatefulPartitionedCall/autocorrect_seq2seq/decoder_lstm/PartitionedCall/while/StatefulPartitionedCall/autocorrect_seq2seq/decoder_lstm/PartitionedCall/while/loop_counter_switch/_137", "op": "Switch", "input": ["StatefulPartitionedCall/autocorrect_seq2seq/decoder_lstm/PartitionedCall/while/merge/_123", "StatefulPartitionedCall/autocorrect_seq2seq/decoder_lstm/PartitionedCall/while/LoopCond/_136"], "attr": {"T": {"type": "DT_INT32"}}}, {"name": "StatefulPartitionedCall/autocorrect_seq2seq/decoder_lstm/PartitionedCall/while/StatefulPartitionedCall/autocorrect_seq2seq/decoder_lstm/PartitionedCall/TensorArrayV2_1_switch/_140", "op": "Switch", "input": ["StatefulPartitionedCall/autocorrect_seq2seq/decoder_lstm/PartitionedCall/while/merge/_126", "StatefulPartitionedCall/autocorrect_seq2seq/decoder_lstm/PartitionedCall/while/LoopCond/_136"], "attr": {"T": {"type": "DT_VARIANT"}}}, {"name": "StatefulPartitionedCall/autocorrect_seq2seq/decoder_lstm/PartitionedCall/while/StatefulPartitionedCall/autocorrect_seq2seq/decoder_lstm/PartitionedCall/strided_slice_switch/_144", "op": "Switch", "input": ["StatefulPartitionedCall/autocorrect_seq2seq/decoder_lstm/PartitionedCall/while/merge/_130", "StatefulPartitionedCall/autocorrect_seq2seq/decoder_lstm/PartitionedCall/while/LoopCond/_136"], "attr": {"T": {"type": "DT_INT32"}}}, {"name": "StatefulPartitionedCall/autocorrect_seq2seq/encoder_lstm/PartitionedCall/while/StatefulPartitionedCall/autocorrect_seq2seq/encoder_lstm/PartitionedCall/TensorArrayUnstack_1/TensorListFromTensor_switch/_76", "op": "Switch", "input": ["StatefulPartitionedCall/autocorrect_seq2seq/encoder_lstm/PartitionedCall/while/merge/_62", "StatefulPartitionedCall/autocorrect_seq2seq/encoder_lstm/PartitionedCall/while/LoopCond/_66"], "attr": {"T": {"type": "DT_VARIANT"}}}, {"name": "StatefulPartitionedCall/autocorrect_seq2seq/encoder_lstm/PartitionedCall/while/Func/StatefulPartitionedCall/autocorrect_seq2seq/encoder_lstm/PartitionedCall/input/_16_switch/_73", "op": "Switch", "input": ["StatefulPartitionedCall/autocorrect_seq2seq/encoder_lstm/PartitionedCall/while/merge/_59", "StatefulPartitionedCall/autocorrect_seq2seq/encoder_lstm/PartitionedCall/while/LoopCond/_66"], "attr": {"T": {"type": "DT_FLOAT"}}}, {"name": "StatefulPartitionedCall/autocorrect_seq2seq/encoder_lstm/PartitionedCall/while/StatefulPartitionedCall/autocorrect_seq2seq/encoder_lstm/PartitionedCall/TensorArrayUnstack/TensorListFromTensor_switch/_75", "op": "Switch", "input": ["StatefulPartitionedCall/autocorrect_seq2seq/encoder_lstm/PartitionedCall/while/merge/_61", "StatefulPartitionedCall/autocorrect_seq2seq/encoder_lstm/PartitionedCall/while/LoopCond/_66"], "attr": {"T": {"type": "DT_VARIANT"}}}, {"name": "StatefulPartitionedCall/autocorrect_seq2seq/encoder_lstm/PartitionedCall/while/Func/StatefulPartitionedCall/autocorrect_seq2seq/encoder_lstm/PartitionedCall/input/_17_switch/_77", "op": "Switch", "input": ["StatefulPartitionedCall/autocorrect_seq2seq/encoder_lstm/PartitionedCall/while/merge/_63", "StatefulPartitionedCall/autocorrect_seq2seq/encoder_lstm/PartitionedCall/while/LoopCond/_66"], "attr": {"T": {"type": "DT_FLOAT"}}}, {"name": "StatefulPartitionedCall/autocorrect_seq2seq/encoder_lstm/PartitionedCall/while/Func/StatefulPartitionedCall/autocorrect_seq2seq/encoder_lstm/PartitionedCall/input/_18_switch/_78", "op": "Switch", "input": ["StatefulPartitionedCall/autocorrect_seq2seq/encoder_lstm/PartitionedCall/while/merge/_64", "StatefulPartitionedCall/autocorrect_seq2seq/encoder_lstm/PartitionedCall/while/LoopCond/_66"], "attr": {"T": {"type": "DT_FLOAT"}}}, {"name": "StatefulPartitionedCall/autocorrect_seq2seq/encoder_lstm/PartitionedCall/while/Func/StatefulPartitionedCall/autocorrect_seq2seq/encoder_lstm/PartitionedCall/input/_19_switch/_79", "op": "Switch", "input": ["StatefulPartitionedCall/autocorrect_seq2seq/encoder_lstm/PartitionedCall/while/merge/_65", "StatefulPartitionedCall/autocorrect_seq2seq/encoder_lstm/PartitionedCall/while/LoopCond/_66"], "attr": {"T": {"type": "DT_FLOAT"}}}, {"name": "StatefulPartitionedCall/autocorrect_seq2seq/encoder_lstm/PartitionedCall/while/StatefulPartitionedCall/autocorrect_seq2seq/encoder_lstm/PartitionedCall/time_switch/_69", "op": "Switch", "input": ["StatefulPartitionedCall/autocorrect_seq2seq/encoder_lstm/PartitionedCall/while/merge/_55", "StatefulPartitionedCall/autocorrect_seq2seq/encoder_lstm/PartitionedCall/while/LoopCond/_66"], "attr": {"T": {"type": "DT_INT32"}}}, {"name": "StatefulPartitionedCall/autocorrect_seq2seq/encoder_lstm/PartitionedCall/while/StatefulPartitionedCall/autocorrect_seq2seq/encoder_lstm/PartitionedCall/while/loop_counter_switch/_67", "op": "Switch", "input": ["StatefulPartitionedCall/autocorrect_seq2seq/encoder_lstm/PartitionedCall/while/merge/_53", "StatefulPartitionedCall/autocorrect_seq2seq/encoder_lstm/PartitionedCall/while/LoopCond/_66"], "attr": {"T": {"type": "DT_INT32"}}}, {"name": "StatefulPartitionedCall/autocorrect_seq2seq/encoder_lstm/PartitionedCall/while/Func/StatefulPartitionedCall/autocorrect_seq2seq/encoder_lstm/PartitionedCall/input/_15_switch/_72", "op": "Switch", "input": ["StatefulPartitionedCall/autocorrect_seq2seq/encoder_lstm/PartitionedCall/while/merge/_58", "StatefulPartitionedCall/autocorrect_seq2seq/encoder_lstm/PartitionedCall/while/LoopCond/_66"], "attr": {"T": {"type": "DT_FLOAT"}}}, {"name": "StatefulPartitionedCall/autocorrect_seq2seq/encoder_lstm/PartitionedCall/while/StatefulPartitionedCall/autocorrect_seq2seq/encoder_lstm/PartitionedCall/strided_slice_switch/_74", "op": "Switch", "input": ["StatefulPartitionedCall/autocorrect_seq2seq/encoder_lstm/PartitionedCall/while/merge/_60", "StatefulPartitionedCall/autocorrect_seq2seq/encoder_lstm/PartitionedCall/while/LoopCond/_66"], "attr": {"T": {"type": "DT_INT32"}}}, {"name": "StatefulPartitionedCall/autocorrect_seq2seq/decoder_lstm/PartitionedCall/while/loop_body_control/_150", "op": "Identity", "input": ["StatefulPartitionedCall/autocorrect_seq2seq/decoder_lstm/PartitionedCall/while/StatefulPartitionedCall/autocorrect_seq2seq/decoder_lstm/PartitionedCall/while/loop_counter_switch/_137:1"], "attr": {"T": {"type": "DT_INT32"}}}, {"name": "StatefulPartitionedCall/autocorrect_seq2seq/decoder_lstm/PartitionedCall/while/exit/_154", "op": "Exit", "input": ["StatefulPartitionedCall/autocorrect_seq2seq/decoder_lstm/PartitionedCall/while/StatefulPartitionedCall/autocorrect_seq2seq/decoder_lstm/PartitionedCall/TensorArrayV2_1_switch/_140"], "attr": {"T": {"type": "DT_VARIANT"}}}, {"name": "StatefulPartitionedCall/autocorrect_seq2seq/encoder_lstm/PartitionedCall/while/exit/_87", "op": "Exit", "input": ["StatefulPartitionedCall/autocorrect_seq2seq/encoder_lstm/PartitionedCall/while/Func/StatefulPartitionedCall/autocorrect_seq2seq/encoder_lstm/PartitionedCall/input/_16_switch/_73"], "attr": {"T": {"type": "DT_FLOAT"}}}, {"name": "StatefulPartitionedCall/autocorrect_seq2seq/encoder_lstm/PartitionedCall/while/loop_body_control/_80", "op": "Identity", "input": ["StatefulPartitionedCall/autocorrect_seq2seq/encoder_lstm/PartitionedCall/while/StatefulPartitionedCall/autocorrect_seq2seq/encoder_lstm/PartitionedCall/while/loop_counter_switch/_67:1"], "attr": {"T": {"type": "DT_INT32"}}}, {"name": "StatefulPartitionedCall/autocorrect_seq2seq/encoder_lstm/PartitionedCall/while/exit/_86", "op": "Exit", "input": ["StatefulPartitionedCall/autocorrect_seq2seq/encoder_lstm/PartitionedCall/while/Func/StatefulPartitionedCall/autocorrect_seq2seq/encoder_lstm/PartitionedCall/input/_15_switch/_72"], "attr": {"T": {"type": "DT_FLOAT"}}}, {"name": "StatefulPartitionedCall/autocorrect_seq2seq/decoder_lstm/PartitionedCall/while/body/_109/while/split/split_dim", "op": "Const", "input": ["^StatefulPartitionedCall/autocorrect_seq2seq/decoder_lstm/PartitionedCall/while/loop_body_control/_150"], "attr": {"value": {"tensor": {"dtype": "DT_INT32", "tensorShape": {}}}, "dtype": {"type": "DT_INT32"}}}, {"name": "StatefulPartitionedCall/autocorrect_seq2seq/decoder_lstm/PartitionedCall/while/next_iteration/_173", "op": "NextIteration", "input": ["StatefulPartitionedCall/autocorrect_seq2seq/decoder_lstm/PartitionedCall/while/StatefulPartitionedCall/autocorrect_seq2seq/decoder_lstm/PartitionedCall/TensorArrayUnstack/TensorListFromTensor_switch/_145:1", "^StatefulPartitionedCall/autocorrect_seq2seq/decoder_lstm/PartitionedCall/while/loop_body_control/_150"], "attr": {"T": {"type": "DT_VARIANT"}}}, {"name": "StatefulPartitionedCall/autocorrect_seq2seq/decoder_lstm/PartitionedCall/while/body/_109/while/TensorArrayV2Read/TensorListGetItem/element_shape", "op": "Const", "input": ["^StatefulPartitionedCall/autocorrect_seq2seq/decoder_lstm/PartitionedCall/while/loop_body_control/_150"], "attr": {"value": {"tensor": {"dtype": "DT_INT32", "tensorShape": {"dim": [{"size": "2"}]}}}, "dtype": {"type": "DT_INT32"}}}, {"name": "StatefulPartitionedCall/autocorrect_seq2seq/decoder_lstm/PartitionedCall/while/next_iteration/_175", "op": "NextIteration", "input": ["StatefulPartitionedCall/autocorrect_seq2seq/decoder_lstm/PartitionedCall/while/Func/StatefulPartitionedCall/autocorrect_seq2seq/decoder_lstm/PartitionedCall/input/_29_switch/_147:1", "^StatefulPartitionedCall/autocorrect_seq2seq/decoder_lstm/PartitionedCall/while/loop_body_control/_150"], "attr": {"T": {"type": "DT_FLOAT"}}}, {"name": "StatefulPartitionedCall/autocorrect_seq2seq/decoder_lstm/PartitionedCall/while/next_iteration/_174", "op": "NextIteration", "input": ["StatefulPartitionedCall/autocorrect_seq2seq/decoder_lstm/PartitionedCall/while/StatefulPartitionedCall/autocorrect_seq2seq/decoder_lstm/PartitionedCall/TensorArrayUnstack_1/TensorListFromTensor_switch/_146:1", "^StatefulPartitionedCall/autocorrect_seq2seq/decoder_lstm/PartitionedCall/while/loop_body_control/_150"], "attr": {"T": {"type": "DT_VARIANT"}}}, {"name": "StatefulPartitionedCall/autocorrect_seq2seq/decoder_lstm/PartitionedCall/while/body/_109/while/TensorArrayV2Read_1/TensorListGetItem/element_shape", "op": "Const", "input": ["^StatefulPartitionedCall/autocorrect_seq2seq/decoder_lstm/PartitionedCall/while/loop_body_control/_150"], "attr": {"value": {"tensor": {"dtype": "DT_INT32", "tensorShape": {"dim": [{"size": "2"}]}}}, "dtype": {"type": "DT_INT32"}}}, {"name": "StatefulPartitionedCall/autocorrect_seq2seq/decoder_lstm/PartitionedCall/while/next_iteration/_176", "op": "NextIteration", "input": ["StatefulPartitionedCall/autocorrect_seq2seq/decoder_lstm/PartitionedCall/while/Func/StatefulPartitionedCall/autocorrect_seq2seq/decoder_lstm/PartitionedCall/input/_30_switch/_148:1", "^StatefulPartitionedCall/autocorrect_seq2seq/decoder_lstm/PartitionedCall/while/loop_body_control/_150"], "attr": {"T": {"type": "DT_FLOAT"}}}, {"name": "StatefulPartitionedCall/autocorrect_seq2seq/decoder_lstm/PartitionedCall/while/next_iteration/_177", "op": "NextIteration", "input": ["StatefulPartitionedCall/autocorrect_seq2seq/decoder_lstm/PartitionedCall/while/Func/StatefulPartitionedCall/autocorrect_seq2seq/decoder_lstm/PartitionedCall/input/_31_switch/_149:1", "^StatefulPartitionedCall/autocorrect_seq2seq/decoder_lstm/PartitionedCall/while/loop_body_control/_150"], "attr": {"T": {"type": "DT_FLOAT"}}}, {"name": "Func/StatefulPartitionedCall/autocorrect_seq2seq/decoder_lstm/PartitionedCall/while/body/_109/input/_239", "op": "Identity", "input": ["StatefulPartitionedCall/autocorrect_seq2seq/decoder_lstm/PartitionedCall/while/StatefulPartitionedCall/autocorrect_seq2seq/decoder_lstm/PartitionedCall/time_switch/_139:1", "^StatefulPartitionedCall/autocorrect_seq2seq/decoder_lstm/PartitionedCall/while/loop_body_control/_150"], "attr": {"T": {"type": "DT_INT32"}}}, {"name": "StatefulPartitionedCall/autocorrect_seq2seq/decoder_lstm/PartitionedCall/while/body/_109/while/add_2/y", "op": "Const", "input": ["^StatefulPartitionedCall/autocorrect_seq2seq/decoder_lstm/PartitionedCall/while/loop_body_control/_150"], "attr": {"value": {"tensor": {"dtype": "DT_INT32", "tensorShape": {}}}, "dtype": {"type": "DT_INT32"}}}, {"name": "StatefulPartitionedCall/autocorrect_seq2seq/decoder_lstm/PartitionedCall/while/body/_109/while/add_3/y", "op": "Const", "input": ["^StatefulPartitionedCall/autocorrect_seq2seq/decoder_lstm/PartitionedCall/while/loop_body_control/_150"], "attr": {"value": {"tensor": {"dtype": "DT_INT32", "tensorShape": {}}}, "dtype": {"type": "DT_INT32"}}}, {"name": "StatefulPartitionedCall/autocorrect_seq2seq/decoder_lstm/PartitionedCall/while/next_iteration/_172", "op": "NextIteration", "input": ["StatefulPartitionedCall/autocorrect_seq2seq/decoder_lstm/PartitionedCall/while/StatefulPartitionedCall/autocorrect_seq2seq/decoder_lstm/PartitionedCall/strided_slice_switch/_144:1", "^StatefulPartitionedCall/autocorrect_seq2seq/decoder_lstm/PartitionedCall/while/loop_body_control/_150"], "attr": {"T": {"type": "DT_INT32"}}}, {"name": "StatefulPartitionedCall/autocorrect_seq2seq/decoder_lstm/PartitionedCall/TensorArrayV2Stack/TensorListStack", "op": "TensorListStack", "input": ["StatefulPartitionedCall/autocorrect_seq2seq/decoder_lstm/PartitionedCall/while/exit/_154", "StatefulPartitionedCall/autocorrect_seq2seq/decoder_lstm/PartitionedCall/TensorArrayV2Stack/TensorListStack/element_shape"], "attr": {"num_elements": {"i": "-1"}, "element_dtype": {"type": "DT_FLOAT"}}}, {"name": "StatefulPartitionedCall/autocorrect_seq2seq/decoder_lstm/PartitionedCall/while/enter/_116", "op": "Enter", "input": ["StatefulPartitionedCall/autocorrect_seq2seq/encoder_lstm/PartitionedCall/while/exit/_87"], "attr": {"T": {"type": "DT_FLOAT"}, "frame_name": {"s": "U3RhdGVmdWxQYXJ0aXRpb25lZENhbGwvYXV0b2NvcnJlY3Rfc2VxMnNlcS9kZWNvZGVyX2xzdG0vUGFydGl0aW9uZWRDYWxsL3doaWxl"}, "is_constant": {"b": false}, "parallel_iterations": {"i": "32"}}}, {"name": "StatefulPartitionedCall/autocorrect_seq2seq/encoder_lstm/PartitionedCall/while/next_iteration/_104", "op": "NextIteration", "input": ["StatefulPartitionedCall/autocorrect_seq2seq/encoder_lstm/PartitionedCall/while/StatefulPartitionedCall/autocorrect_seq2seq/encoder_lstm/PartitionedCall/TensorArrayUnstack_1/TensorListFromTensor_switch/_76:1", "^StatefulPartitionedCall/autocorrect_seq2seq/encoder_lstm/PartitionedCall/while/loop_body_control/_80"], "attr": {"T": {"type": "DT_VARIANT"}}}, {"name": "StatefulPartitionedCall/autocorrect_seq2seq/encoder_lstm/PartitionedCall/while/body/_39/while/TensorArrayV2Read_1/TensorListGetItem/element_shape", "op": "Const", "input": ["^StatefulPartitionedCall/autocorrect_seq2seq/encoder_lstm/PartitionedCall/while/loop_body_control/_80"], "attr": {"value": {"tensor": {"dtype": "DT_INT32", "tensorShape": {"dim": [{"size": "2"}]}}}, "dtype": {"type": "DT_INT32"}}}, {"name": "StatefulPartitionedCall/autocorrect_seq2seq/encoder_lstm/PartitionedCall/while/body/_39/while/split/split_dim", "op": "Const", "input": ["^StatefulPartitionedCall/autocorrect_seq2seq/encoder_lstm/PartitionedCall/while/loop_body_control/_80"], "attr": {"value": {"tensor": {"dtype": "DT_INT32", "tensorShape": {}}}, "dtype": {"type": "DT_INT32"}}}, {"name": "StatefulPartitionedCall/autocorrect_seq2seq/encoder_lstm/PartitionedCall/while/next_iteration/_103", "op": "NextIteration", "input": ["StatefulPartitionedCall/autocorrect_seq2seq/encoder_lstm/PartitionedCall/while/StatefulPartitionedCall/autocorrect_seq2seq/encoder_lstm/PartitionedCall/TensorArrayUnstack/TensorListFromTensor_switch/_75:1", "^StatefulPartitionedCall/autocorrect_seq2seq/encoder_lstm/PartitionedCall/while/loop_body_control/_80"], "attr": {"T": {"type": "DT_VARIANT"}}}, {"name": "StatefulPartitionedCall/autocorrect_seq2seq/encoder_lstm/PartitionedCall/while/body/_39/while/TensorArrayV2Read/TensorListGetItem/element_shape", "op": "Const", "input": ["^StatefulPartitionedCall/autocorrect_seq2seq/encoder_lstm/PartitionedCall/while/loop_body_control/_80"], "attr": {"value": {"tensor": {"dtype": "DT_INT32", "tensorShape": {"dim": [{"size": "2"}]}}}, "dtype": {"type": "DT_INT32"}}}, {"name": "StatefulPartitionedCall/autocorrect_seq2seq/encoder_lstm/PartitionedCall/while/next_iteration/_105", "op": "NextIteration", "input": ["StatefulPartitionedCall/autocorrect_seq2seq/encoder_lstm/PartitionedCall/while/Func/StatefulPartitionedCall/autocorrect_seq2seq/encoder_lstm/PartitionedCall/input/_17_switch/_77:1", "^StatefulPartitionedCall/autocorrect_seq2seq/encoder_lstm/PartitionedCall/while/loop_body_control/_80"], "attr": {"T": {"type": "DT_FLOAT"}}}, {"name": "StatefulPartitionedCall/autocorrect_seq2seq/encoder_lstm/PartitionedCall/while/next_iteration/_106", "op": "NextIteration", "input": ["StatefulPartitionedCall/autocorrect_seq2seq/encoder_lstm/PartitionedCall/while/Func/StatefulPartitionedCall/autocorrect_seq2seq/encoder_lstm/PartitionedCall/input/_18_switch/_78:1", "^StatefulPartitionedCall/autocorrect_seq2seq/encoder_lstm/PartitionedCall/while/loop_body_control/_80"], "attr": {"T": {"type": "DT_FLOAT"}}}, {"name": "StatefulPartitionedCall/autocorrect_seq2seq/encoder_lstm/PartitionedCall/while/next_iteration/_107", "op": "NextIteration", "input": ["StatefulPartitionedCall/autocorrect_seq2seq/encoder_lstm/PartitionedCall/while/Func/StatefulPartitionedCall/autocorrect_seq2seq/encoder_lstm/PartitionedCall/input/_19_switch/_79:1", "^StatefulPartitionedCall/autocorrect_seq2seq/encoder_lstm/PartitionedCall/while/loop_body_control/_80"], "attr": {"T": {"type": "DT_FLOAT"}}}, {"name": "Func/StatefulPartitionedCall/autocorrect_seq2seq/encoder_lstm/PartitionedCall/while/body/_39/input/_196", "op": "Identity", "input": ["StatefulPartitionedCall/autocorrect_seq2seq/encoder_lstm/PartitionedCall/while/StatefulPartitionedCall/autocorrect_seq2seq/encoder_lstm/PartitionedCall/time_switch/_69:1", "^StatefulPartitionedCall/autocorrect_seq2seq/encoder_lstm/PartitionedCall/while/loop_body_control/_80"], "attr": {"T": {"type": "DT_INT32"}}}, {"name": "StatefulPartitionedCall/autocorrect_seq2seq/encoder_lstm/PartitionedCall/while/body/_39/while/add_2/y", "op": "Const", "input": ["^StatefulPartitionedCall/autocorrect_seq2seq/encoder_lstm/PartitionedCall/while/loop_body_control/_80"], "attr": {"value": {"tensor": {"dtype": "DT_INT32", "tensorShape": {}}}, "dtype": {"type": "DT_INT32"}}}, {"name": "StatefulPartitionedCall/autocorrect_seq2seq/encoder_lstm/PartitionedCall/while/body/_39/while/add_3/y", "op": "Const", "input": ["^StatefulPartitionedCall/autocorrect_seq2seq/encoder_lstm/PartitionedCall/while/loop_body_control/_80"], "attr": {"dtype": {"type": "DT_INT32"}, "value": {"tensor": {"dtype": "DT_INT32", "tensorShape": {}}}}}, {"name": "StatefulPartitionedCall/autocorrect_seq2seq/encoder_lstm/PartitionedCall/while/body/_39/while/MatMul_1", "op": "MatMul", "input": ["StatefulPartitionedCall/autocorrect_seq2seq/encoder_lstm/PartitionedCall/while/Func/StatefulPartitionedCall/autocorrect_seq2seq/encoder_lstm/PartitionedCall/input/_15_switch/_72:1", "StatefulPartitionedCall/autocorrect_seq2seq/encoder_lstm/PartitionedCall/while/Func/StatefulPartitionedCall/autocorrect_seq2seq/encoder_lstm/PartitionedCall/input/_18_switch/_78:1", "^StatefulPartitionedCall/autocorrect_seq2seq/encoder_lstm/PartitionedCall/while/loop_body_control/_80"], "device": "/device:CPU:0", "attr": {"transpose_a": {"b": false}, "T": {"type": "DT_FLOAT"}, "transpose_b": {"b": false}}}, {"name": "StatefulPartitionedCall/autocorrect_seq2seq/encoder_lstm/PartitionedCall/while/next_iteration/_102", "op": "NextIteration", "input": ["StatefulPartitionedCall/autocorrect_seq2seq/encoder_lstm/PartitionedCall/while/StatefulPartitionedCall/autocorrect_seq2seq/encoder_lstm/PartitionedCall/strided_slice_switch/_74:1", "^StatefulPartitionedCall/autocorrect_seq2seq/encoder_lstm/PartitionedCall/while/loop_body_control/_80"], "attr": {"T": {"type": "DT_INT32"}}}, {"name": "StatefulPartitionedCall/autocorrect_seq2seq/decoder_lstm/PartitionedCall/while/enter/_115", "op": "Enter", "input": ["StatefulPartitionedCall/autocorrect_seq2seq/encoder_lstm/PartitionedCall/while/exit/_86"], "attr": {"T": {"type": "DT_FLOAT"}, "frame_name": {"s": "U3RhdGVmdWxQYXJ0aXRpb25lZENhbGwvYXV0b2NvcnJlY3Rfc2VxMnNlcS9kZWNvZGVyX2xzdG0vUGFydGl0aW9uZWRDYWxsL3doaWxl"}, "is_constant": {"b": false}, "parallel_iterations": {"i": "32"}}}, {"name": "StatefulPartitionedCall/autocorrect_seq2seq/decoder_lstm/PartitionedCall/MatMul_1", "op": "MatMul", "input": ["StatefulPartitionedCall/autocorrect_seq2seq/encoder_lstm/PartitionedCall/while/exit/_86", "StatefulPartitionedCall/autocorrect_seq2seq/decoder_lstm/Read_1/ReadVariableOp"], "device": "/device:CPU:0", "attr": {"T": {"type": "DT_FLOAT"}, "transpose_a": {"b": false}, "transpose_b": {"b": false}}}, {"name": "StatefulPartitionedCall/autocorrect_seq2seq/decoder_lstm/PartitionedCall/while/body/_109/while/TensorArrayV2Read/TensorListGetItem", "op": "TensorListGetItem", "input": ["StatefulPartitionedCall/autocorrect_seq2seq/decoder_lstm/PartitionedCall/while/StatefulPartitionedCall/autocorrect_seq2seq/decoder_lstm/PartitionedCall/TensorArrayUnstack/TensorListFromTensor_switch/_145:1", "Func/StatefulPartitionedCall/autocorrect_seq2seq/decoder_lstm/PartitionedCall/while/body/_109/input/_239", "StatefulPartitionedCall/autocorrect_seq2seq/decoder_lstm/PartitionedCall/while/body/_109/while/TensorArrayV2Read/TensorListGetItem/element_shape"], "attr": {"element_dtype": {"type": "DT_FLOAT"}}}, {"name": "StatefulPartitionedCall/autocorrect_seq2seq/decoder_lstm/PartitionedCall/while/body/_109/while/TensorArrayV2Read_1/TensorListGetItem", "op": "TensorListGetItem", "input": ["StatefulPartitionedCall/autocorrect_seq2seq/decoder_lstm/PartitionedCall/while/StatefulPartitionedCall/autocorrect_seq2seq/decoder_lstm/PartitionedCall/TensorArrayUnstack_1/TensorListFromTensor_switch/_146:1", "Func/StatefulPartitionedCall/autocorrect_seq2seq/decoder_lstm/PartitionedCall/while/body/_109/input/_239", "StatefulPartitionedCall/autocorrect_seq2seq/decoder_lstm/PartitionedCall/while/body/_109/while/TensorArrayV2Read_1/TensorListGetItem/element_shape"], "attr": {"element_dtype": {"type": "DT_BOOL"}}}, {"name": "StatefulPartitionedCall/autocorrect_seq2seq/decoder_lstm/PartitionedCall/while/body/_109/while/add_2", "op": "AddV2", "input": ["Func/StatefulPartitionedCall/autocorrect_seq2seq/decoder_lstm/PartitionedCall/while/body/_109/input/_239", "StatefulPartitionedCall/autocorrect_seq2seq/decoder_lstm/PartitionedCall/while/body/_109/while/add_2/y"], "attr": {"T": {"type": "DT_INT32"}}}, {"name": "StatefulPartitionedCall/autocorrect_seq2seq/decoder_lstm/PartitionedCall/while/body/_109/while/add_3", "op": "AddV2", "input": ["StatefulPartitionedCall/autocorrect_seq2seq/decoder_lstm/PartitionedCall/while/StatefulPartitionedCall/autocorrect_seq2seq/decoder_lstm/PartitionedCall/while/loop_counter_switch/_137:1", "StatefulPartitionedCall/autocorrect_seq2seq/decoder_lstm/PartitionedCall/while/body/_109/while/add_3/y"], "attr": {"T": {"type": "DT_INT32"}}}, {"name": "StatefulPartitionedCall/autocorrect_seq2seq/decoder_lstm/PartitionedCall/transpose_2", "op": "Transpose", "input": ["StatefulPartitionedCall/autocorrect_seq2seq/decoder_lstm/PartitionedCall/TensorArrayV2Stack/TensorListStack", "StatefulPartitionedCall/autocorrect_seq2seq/decoder_lstm/PartitionedCall/transpose_2/perm"], "attr": {"Tperm": {"type": "DT_INT32"}, "T": {"type": "DT_FLOAT"}}}, {"name": "StatefulPartitionedCall/autocorrect_seq2seq/decoder_lstm/PartitionedCall/while/merge/_129", "op": "Merge", "input": ["StatefulPartitionedCall/autocorrect_seq2seq/decoder_lstm/PartitionedCall/while/enter/_116", "StatefulPartitionedCall/autocorrect_seq2seq/decoder_lstm/PartitionedCall/while/next_iteration/_171"], "attr": {"T": {"type": "DT_FLOAT"}, "N": {"i": "2"}}}, {"name": "StatefulPartitionedCall/autocorrect_seq2seq/encoder_lstm/PartitionedCall/while/body/_39/while/TensorArrayV2Read_1/TensorListGetItem", "op": "TensorListGetItem", "input": ["StatefulPartitionedCall/autocorrect_seq2seq/encoder_lstm/PartitionedCall/while/StatefulPartitionedCall/autocorrect_seq2seq/encoder_lstm/PartitionedCall/TensorArrayUnstack_1/TensorListFromTensor_switch/_76:1", "Func/StatefulPartitionedCall/autocorrect_seq2seq/encoder_lstm/PartitionedCall/while/body/_39/input/_196", "StatefulPartitionedCall/autocorrect_seq2seq/encoder_lstm/PartitionedCall/while/body/_39/while/TensorArrayV2Read_1/TensorListGetItem/element_shape"], "attr": {"element_dtype": {"type": "DT_BOOL"}}}, {"name": "StatefulPartitionedCall/autocorrect_seq2seq/encoder_lstm/PartitionedCall/while/body/_39/while/TensorArrayV2Read/TensorListGetItem", "op": "TensorListGetItem", "input": ["StatefulPartitionedCall/autocorrect_seq2seq/encoder_lstm/PartitionedCall/while/StatefulPartitionedCall/autocorrect_seq2seq/encoder_lstm/PartitionedCall/TensorArrayUnstack/TensorListFromTensor_switch/_75:1", "Func/StatefulPartitionedCall/autocorrect_seq2seq/encoder_lstm/PartitionedCall/while/body/_39/input/_196", "StatefulPartitionedCall/autocorrect_seq2seq/encoder_lstm/PartitionedCall/while/body/_39/while/TensorArrayV2Read/TensorListGetItem/element_shape"], "attr": {"element_dtype": {"type": "DT_FLOAT"}}}, {"name": "StatefulPartitionedCall/autocorrect_seq2seq/encoder_lstm/PartitionedCall/while/body/_39/while/add_2", "op": "AddV2", "input": ["Func/StatefulPartitionedCall/autocorrect_seq2seq/encoder_lstm/PartitionedCall/while/body/_39/input/_196", "StatefulPartitionedCall/autocorrect_seq2seq/encoder_lstm/PartitionedCall/while/body/_39/while/add_2/y"], "attr": {"T": {"type": "DT_INT32"}}}, {"name": "StatefulPartitionedCall/autocorrect_seq2seq/encoder_lstm/PartitionedCall/while/body/_39/while/add_3", "op": "AddV2", "input": ["StatefulPartitionedCall/autocorrect_seq2seq/encoder_lstm/PartitionedCall/while/StatefulPartitionedCall/autocorrect_seq2seq/encoder_lstm/PartitionedCall/while/loop_counter_switch/_67:1", "StatefulPartitionedCall/autocorrect_seq2seq/encoder_lstm/PartitionedCall/while/body/_39/while/add_3/y"], "attr": {"T": {"type": "DT_INT32"}}}, {"name": "StatefulPartitionedCall/autocorrect_seq2seq/decoder_lstm/PartitionedCall/while/merge/_128", "op": "Merge", "input": ["StatefulPartitionedCall/autocorrect_seq2seq/decoder_lstm/PartitionedCall/while/enter/_115", "StatefulPartitionedCall/autocorrect_seq2seq/decoder_lstm/PartitionedCall/while/next_iteration/_170"], "attr": {"N": {"i": "2"}, "T": {"type": "DT_FLOAT"}}}, {"name": "StatefulPartitionedCall/autocorrect_seq2seq/decoder_lstm/PartitionedCall/add", "op": "AddV2", "input": ["StatefulPartitionedCall/autocorrect_seq2seq/decoder_lstm/PartitionedCall/MatMul", "StatefulPartitionedCall/autocorrect_seq2seq/decoder_lstm/PartitionedCall/MatMul_1"], "attr": {"T": {"type": "DT_FLOAT"}}}, {"name": "StatefulPartitionedCall/autocorrect_seq2seq/decoder_lstm/PartitionedCall/while/body/_109/while/MatMul", "op": "MatMul", "input": ["StatefulPartitionedCall/autocorrect_seq2seq/decoder_lstm/PartitionedCall/while/body/_109/while/TensorArrayV2Read/TensorListGetItem", "StatefulPartitionedCall/autocorrect_seq2seq/decoder_lstm/PartitionedCall/while/Func/StatefulPartitionedCall/autocorrect_seq2seq/decoder_lstm/PartitionedCall/input/_29_switch/_147:1"], "device": "/device:CPU:0", "attr": {"transpose_b": {"b": false}, "T": {"type": "DT_FLOAT"}, "transpose_a": {"b": false}}}, {"name": "StatefulPartitionedCall/autocorrect_seq2seq/decoder_lstm/PartitionedCall/while/next_iteration/_167", "op": "NextIteration", "input": ["StatefulPartitionedCall/autocorrect_seq2seq/decoder_lstm/PartitionedCall/while/body/_109/while/add_2", "^StatefulPartitionedCall/autocorrect_seq2seq/decoder_lstm/PartitionedCall/while/loop_body_control/_150"], "attr": {"T": {"type": "DT_INT32"}}}, {"name": "StatefulPartitionedCall/autocorrect_seq2seq/decoder_lstm/PartitionedCall/while/next_iteration/_165", "op": "NextIteration", "input": ["StatefulPartitionedCall/autocorrect_seq2seq/decoder_lstm/PartitionedCall/while/body/_109/while/add_3", "^StatefulPartitionedCall/autocorrect_seq2seq/decoder_lstm/PartitionedCall/while/loop_body_control/_150"], "attr": {"T": {"type": "DT_INT32"}}}, {"name": "StatefulPartitionedCall/autocorrect_seq2seq/output_dense/Reshape", "op": "Reshape", "input": ["StatefulPartitionedCall/autocorrect_seq2seq/decoder_lstm/PartitionedCall/transpose_2", "StatefulPartitionedCall/autocorrect_seq2seq/output_dense/Reshape/shape"], "attr": {"T": {"type": "DT_FLOAT"}, "Tshape": {"type": "DT_INT32"}}}, {"name": "StatefulPartitionedCall/autocorrect_seq2seq/decoder_lstm/PartitionedCall/while/Func/StatefulPartitionedCall/autocorrect_seq2seq/decoder_lstm/PartitionedCall/input/_28_switch/_143", "op": "Switch", "input": ["StatefulPartitionedCall/autocorrect_seq2seq/decoder_lstm/PartitionedCall/while/merge/_129", "StatefulPartitionedCall/autocorrect_seq2seq/decoder_lstm/PartitionedCall/while/LoopCond/_136"], "attr": {"T": {"type": "DT_FLOAT"}}}, {"name": "StatefulPartitionedCall/autocorrect_seq2seq/encoder_lstm/PartitionedCall/while/body/_39/while/MatMul", "op": "MatMul", "input": ["StatefulPartitionedCall/autocorrect_seq2seq/encoder_lstm/PartitionedCall/while/body/_39/while/TensorArrayV2Read/TensorListGetItem", "StatefulPartitionedCall/autocorrect_seq2seq/encoder_lstm/PartitionedCall/while/Func/StatefulPartitionedCall/autocorrect_seq2seq/encoder_lstm/PartitionedCall/input/_17_switch/_77:1"], "device": "/device:CPU:0", "attr": {"T": {"type": "DT_FLOAT"}, "transpose_a": {"b": false}, "transpose_b": {"b": false}}}, {"name": "StatefulPartitionedCall/autocorrect_seq2seq/encoder_lstm/PartitionedCall/while/next_iteration/_97", "op": "NextIteration", "input": ["StatefulPartitionedCall/autocorrect_seq2seq/encoder_lstm/PartitionedCall/while/body/_39/while/add_2", "^StatefulPartitionedCall/autocorrect_seq2seq/encoder_lstm/PartitionedCall/while/loop_body_control/_80"], "attr": {"T": {"type": "DT_INT32"}}}, {"name": "StatefulPartitionedCall/autocorrect_seq2seq/encoder_lstm/PartitionedCall/while/next_iteration/_95", "op": "NextIteration", "input": ["StatefulPartitionedCall/autocorrect_seq2seq/encoder_lstm/PartitionedCall/while/body/_39/while/add_3", "^StatefulPartitionedCall/autocorrect_seq2seq/encoder_lstm/PartitionedCall/while/loop_body_control/_80"], "attr": {"T": {"type": "DT_INT32"}}}, {"name": "StatefulPartitionedCall/autocorrect_seq2seq/decoder_lstm/PartitionedCall/while/Func/StatefulPartitionedCall/autocorrect_seq2seq/decoder_lstm/PartitionedCall/input/_27_switch/_142", "op": "Switch", "input": ["StatefulPartitionedCall/autocorrect_seq2seq/decoder_lstm/PartitionedCall/while/merge/_128", "StatefulPartitionedCall/autocorrect_seq2seq/decoder_lstm/PartitionedCall/while/LoopCond/_136"], "attr": {"T": {"type": "DT_FLOAT"}}}, {"name": "StatefulPartitionedCall/autocorrect_seq2seq/decoder_lstm/PartitionedCall/BiasAdd", "op": "BiasAdd", "input": ["StatefulPartitionedCall/autocorrect_seq2seq/decoder_lstm/PartitionedCall/add", "StatefulPartitionedCall/autocorrect_seq2seq/decoder_lstm/Read_2/ReadVariableOp"], "attr": {"data_format": {"s": "TkhXQw=="}, "T": {"type": "DT_FLOAT"}}}, {"name": "StatefulPartitionedCall/autocorrect_seq2seq/output_dense/dense/BiasAdd", "op": "_FusedMatMul", "input": ["StatefulPartitionedCall/autocorrect_seq2seq/output_dense/Reshape", "StatefulPartitionedCall/autocorrect_seq2seq/output_dense/dense/MatMul/ReadVariableOp", "StatefulPartitionedCall/autocorrect_seq2seq/output_dense/dense/BiasAdd/ReadVariableOp"], "device": "/device:CPU:0", "attr": {"epsilon": {"f": 0.0}, "leakyrelu_alpha": {"f": 0.2}, "T": {"type": "DT_FLOAT"}, "transpose_a": {"b": false}, "num_args": {"i": "1"}, "fused_ops": {"list": {"s": ["Qmlhc0FkZA=="]}}, "transpose_b": {"b": false}}}, {"name": "StatefulPartitionedCall/autocorrect_seq2seq/encoder_lstm/PartitionedCall/while/body/_39/while/add", "op": "AddV2", "input": ["StatefulPartitionedCall/autocorrect_seq2seq/encoder_lstm/PartitionedCall/while/body/_39/while/MatMul", "StatefulPartitionedCall/autocorrect_seq2seq/encoder_lstm/PartitionedCall/while/body/_39/while/MatMul_1"], "attr": {"T": {"type": "DT_FLOAT"}}}, {"name": "StatefulPartitionedCall/autocorrect_seq2seq/decoder_lstm/PartitionedCall/while/body/_109/while/MatMul_1", "op": "MatMul", "input": ["StatefulPartitionedCall/autocorrect_seq2seq/decoder_lstm/PartitionedCall/while/Func/StatefulPartitionedCall/autocorrect_seq2seq/decoder_lstm/PartitionedCall/input/_27_switch/_142:1", "StatefulPartitionedCall/autocorrect_seq2seq/decoder_lstm/PartitionedCall/while/Func/StatefulPartitionedCall/autocorrect_seq2seq/decoder_lstm/PartitionedCall/input/_30_switch/_148:1", "^StatefulPartitionedCall/autocorrect_seq2seq/decoder_lstm/PartitionedCall/while/loop_body_control/_150"], "device": "/device:CPU:0", "attr": {"transpose_b": {"b": false}, "T": {"type": "DT_FLOAT"}, "transpose_a": {"b": false}}}, {"name": "StatefulPartitionedCall/autocorrect_seq2seq/decoder_lstm/PartitionedCall/split", "op": "Split", "input": ["StatefulPartitionedCall/autocorrect_seq2seq/decoder_lstm/PartitionedCall/split/split_dim", "StatefulPartitionedCall/autocorrect_seq2seq/decoder_lstm/PartitionedCall/BiasAdd"], "attr": {"num_split": {"i": "4"}, "T": {"type": "DT_FLOAT"}}}, {"name": "StatefulPartitionedCall/autocorrect_seq2seq/output_dense/dense/Softmax", "op": "Softmax", "input": ["StatefulPartitionedCall/autocorrect_seq2seq/output_dense/dense/BiasAdd"], "attr": {"T": {"type": "DT_FLOAT"}}}, {"name": "StatefulPartitionedCall/autocorrect_seq2seq/encoder_lstm/PartitionedCall/while/body/_39/while/BiasAdd", "op": "BiasAdd", "input": ["StatefulPartitionedCall/autocorrect_seq2seq/encoder_lstm/PartitionedCall/while/body/_39/while/add", "StatefulPartitionedCall/autocorrect_seq2seq/encoder_lstm/PartitionedCall/while/Func/StatefulPartitionedCall/autocorrect_seq2seq/encoder_lstm/PartitionedCall/input/_19_switch/_79:1"], "attr": {"T": {"type": "DT_FLOAT"}, "data_format": {"s": "TkhXQw=="}}}, {"name": "StatefulPartitionedCall/autocorrect_seq2seq/decoder_lstm/PartitionedCall/while/body/_109/while/add", "op": "AddV2", "input": ["StatefulPartitionedCall/autocorrect_seq2seq/decoder_lstm/PartitionedCall/while/body/_109/while/MatMul", "StatefulPartitionedCall/autocorrect_seq2seq/decoder_lstm/PartitionedCall/while/body/_109/while/MatMul_1"], "attr": {"T": {"type": "DT_FLOAT"}}}, {"name": "StatefulPartitionedCall/autocorrect_seq2seq/decoder_lstm/PartitionedCall/Sigmoid", "op": "Sigmoid", "input": ["StatefulPartitionedCall/autocorrect_seq2seq/decoder_lstm/PartitionedCall/split"], "attr": {"T": {"type": "DT_FLOAT"}}}, {"name": "StatefulPartitionedCall/autocorrect_seq2seq/decoder_lstm/PartitionedCall/Sigmoid_1", "op": "Sigmoid", "input": ["StatefulPartitionedCall/autocorrect_seq2seq/decoder_lstm/PartitionedCall/split:1"], "attr": {"T": {"type": "DT_FLOAT"}}}, {"name": "StatefulPartitionedCall/autocorrect_seq2seq/decoder_lstm/PartitionedCall/Tanh", "op": "Tanh", "input": ["StatefulPartitionedCall/autocorrect_seq2seq/decoder_lstm/PartitionedCall/split:2"], "attr": {"T": {"type": "DT_FLOAT"}}}, {"name": "StatefulPartitionedCall/autocorrect_seq2seq/decoder_lstm/PartitionedCall/Sigmoid_2", "op": "Sigmoid", "input": ["StatefulPartitionedCall/autocorrect_seq2seq/decoder_lstm/PartitionedCall/split:3"], "attr": {"T": {"type": "DT_FLOAT"}}}, {"name": "StatefulPartitionedCall/autocorrect_seq2seq/output_dense/Reshape_1", "op": "Reshape", "input": ["StatefulPartitionedCall/autocorrect_seq2seq/output_dense/dense/Softmax", "StatefulPartitionedCall/autocorrect_seq2seq/output_dense/Reshape_1/shape"], "attr": {"Tshape": {"type": "DT_INT32"}, "T": {"type": "DT_FLOAT"}}}, {"name": "StatefulPartitionedCall/autocorrect_seq2seq/encoder_lstm/PartitionedCall/while/body/_39/while/split", "op": "Split", "input": ["StatefulPartitionedCall/autocorrect_seq2seq/encoder_lstm/PartitionedCall/while/body/_39/while/split/split_dim", "StatefulPartitionedCall/autocorrect_seq2seq/encoder_lstm/PartitionedCall/while/body/_39/while/BiasAdd"], "attr": {"T": {"type": "DT_FLOAT"}, "num_split": {"i": "4"}}}, {"name": "StatefulPartitionedCall/autocorrect_seq2seq/decoder_lstm/PartitionedCall/while/body/_109/while/BiasAdd", "op": "BiasAdd", "input": ["StatefulPartitionedCall/autocorrect_seq2seq/decoder_lstm/PartitionedCall/while/body/_109/while/add", "StatefulPartitionedCall/autocorrect_seq2seq/decoder_lstm/PartitionedCall/while/Func/StatefulPartitionedCall/autocorrect_seq2seq/decoder_lstm/PartitionedCall/input/_31_switch/_149:1"], "attr": {"T": {"type": "DT_FLOAT"}, "data_format": {"s": "TkhXQw=="}}}, {"name": "StatefulPartitionedCall/autocorrect_seq2seq/decoder_lstm/PartitionedCall/mul", "op": "Mul", "input": ["StatefulPartitionedCall/autocorrect_seq2seq/decoder_lstm/PartitionedCall/Sigmoid_1", "StatefulPartitionedCall/autocorrect_seq2seq/encoder_lstm/PartitionedCall/while/exit/_87"], "attr": {"T": {"type": "DT_FLOAT"}}}, {"name": "StatefulPartitionedCall/autocorrect_seq2seq/decoder_lstm/PartitionedCall/mul_1", "op": "Mul", "input": ["StatefulPartitionedCall/autocorrect_seq2seq/decoder_lstm/PartitionedCall/Sigmoid", "StatefulPartitionedCall/autocorrect_seq2seq/decoder_lstm/PartitionedCall/Tanh"], "attr": {"T": {"type": "DT_FLOAT"}}}, {"name": "Identity", "op": "Identity", "input": ["StatefulPartitionedCall/autocorrect_seq2seq/output_dense/Reshape_1", "^StatefulPartitionedCall/autocorrect_seq2seq/decoder_embedding/embedding_lookup", "^StatefulPartitionedCall/autocorrect_seq2seq/encoder_embedding/embedding_lookup"], "attr": {"T": {"type": "DT_FLOAT"}}}, {"name": "StatefulPartitionedCall/autocorrect_seq2seq/encoder_lstm/PartitionedCall/while/body/_39/while/Sigmoid", "op": "Sigmoid", "input": ["StatefulPartitionedCall/autocorrect_seq2seq/encoder_lstm/PartitionedCall/while/body/_39/while/split"], "attr": {"T": {"type": "DT_FLOAT"}}}, {"name": "StatefulPartitionedCall/autocorrect_seq2seq/encoder_lstm/PartitionedCall/while/body/_39/while/Sigmoid_1", "op": "Sigmoid", "input": ["StatefulPartitionedCall/autocorrect_seq2seq/encoder_lstm/PartitionedCall/while/body/_39/while/split:1"], "attr": {"T": {"type": "DT_FLOAT"}}}, {"name": "StatefulPartitionedCall/autocorrect_seq2seq/encoder_lstm/PartitionedCall/while/body/_39/while/Tanh", "op": "Tanh", "input": ["StatefulPartitionedCall/autocorrect_seq2seq/encoder_lstm/PartitionedCall/while/body/_39/while/split:2"], "attr": {"T": {"type": "DT_FLOAT"}}}, {"name": "StatefulPartitionedCall/autocorrect_seq2seq/encoder_lstm/PartitionedCall/while/body/_39/while/Sigmoid_2", "op": "Sigmoid", "input": ["StatefulPartitionedCall/autocorrect_seq2seq/encoder_lstm/PartitionedCall/while/body/_39/while/split:3"], "attr": {"T": {"type": "DT_FLOAT"}}}, {"name": "StatefulPartitionedCall/autocorrect_seq2seq/decoder_lstm/PartitionedCall/while/body/_109/while/split", "op": "Split", "input": ["StatefulPartitionedCall/autocorrect_seq2seq/decoder_lstm/PartitionedCall/while/body/_109/while/split/split_dim", "StatefulPartitionedCall/autocorrect_seq2seq/decoder_lstm/PartitionedCall/while/body/_109/while/BiasAdd"], "attr": {"num_split": {"i": "4"}, "T": {"type": "DT_FLOAT"}}}, {"name": "StatefulPartitionedCall/autocorrect_seq2seq/decoder_lstm/PartitionedCall/add_1", "op": "AddV2", "input": ["StatefulPartitionedCall/autocorrect_seq2seq/decoder_lstm/PartitionedCall/mul", "StatefulPartitionedCall/autocorrect_seq2seq/decoder_lstm/PartitionedCall/mul_1"], "attr": {"T": {"type": "DT_FLOAT"}}}, {"name": "StatefulPartitionedCall/autocorrect_seq2seq/encoder_lstm/PartitionedCall/while/body/_39/while/mul", "op": "Mul", "input": ["StatefulPartitionedCall/autocorrect_seq2seq/encoder_lstm/PartitionedCall/while/body/_39/while/Sigmoid_1", "StatefulPartitionedCall/autocorrect_seq2seq/encoder_lstm/PartitionedCall/while/Func/StatefulPartitionedCall/autocorrect_seq2seq/encoder_lstm/PartitionedCall/input/_16_switch/_73:1"], "attr": {"T": {"type": "DT_FLOAT"}}}, {"name": "StatefulPartitionedCall/autocorrect_seq2seq/encoder_lstm/PartitionedCall/while/body/_39/while/mul_1", "op": "Mul", "input": ["StatefulPartitionedCall/autocorrect_seq2seq/encoder_lstm/PartitionedCall/while/body/_39/while/Sigmoid", "StatefulPartitionedCall/autocorrect_seq2seq/encoder_lstm/PartitionedCall/while/body/_39/while/Tanh"], "attr": {"T": {"type": "DT_FLOAT"}}}, {"name": "StatefulPartitionedCall/autocorrect_seq2seq/decoder_lstm/PartitionedCall/while/body/_109/while/Sigmoid", "op": "Sigmoid", "input": ["StatefulPartitionedCall/autocorrect_seq2seq/decoder_lstm/PartitionedCall/while/body/_109/while/split"], "attr": {"T": {"type": "DT_FLOAT"}}}, {"name": "StatefulPartitionedCall/autocorrect_seq2seq/decoder_lstm/PartitionedCall/while/body/_109/while/Sigmoid_1", "op": "Sigmoid", "input": ["StatefulPartitionedCall/autocorrect_seq2seq/decoder_lstm/PartitionedCall/while/body/_109/while/split:1"], "attr": {"T": {"type": "DT_FLOAT"}}}, {"name": "StatefulPartitionedCall/autocorrect_seq2seq/decoder_lstm/PartitionedCall/while/body/_109/while/Tanh", "op": "Tanh", "input": ["StatefulPartitionedCall/autocorrect_seq2seq/decoder_lstm/PartitionedCall/while/body/_109/while/split:2"], "attr": {"T": {"type": "DT_FLOAT"}}}, {"name": "StatefulPartitionedCall/autocorrect_seq2seq/decoder_lstm/PartitionedCall/while/body/_109/while/Sigmoid_2", "op": "Sigmoid", "input": ["StatefulPartitionedCall/autocorrect_seq2seq/decoder_lstm/PartitionedCall/while/body/_109/while/split:3"], "attr": {"T": {"type": "DT_FLOAT"}}}, {"name": "StatefulPartitionedCall/autocorrect_seq2seq/decoder_lstm/PartitionedCall/Tanh_1", "op": "Tanh", "input": ["StatefulPartitionedCall/autocorrect_seq2seq/decoder_lstm/PartitionedCall/add_1"], "attr": {"T": {"type": "DT_FLOAT"}}}, {"name": "StatefulPartitionedCall/autocorrect_seq2seq/encoder_lstm/PartitionedCall/while/body/_39/while/add_1", "op": "AddV2", "input": ["StatefulPartitionedCall/autocorrect_seq2seq/encoder_lstm/PartitionedCall/while/body/_39/while/mul", "StatefulPartitionedCall/autocorrect_seq2seq/encoder_lstm/PartitionedCall/while/body/_39/while/mul_1"], "attr": {"T": {"type": "DT_FLOAT"}}}, {"name": "StatefulPartitionedCall/autocorrect_seq2seq/decoder_lstm/PartitionedCall/while/body/_109/while/mul", "op": "Mul", "input": ["StatefulPartitionedCall/autocorrect_seq2seq/decoder_lstm/PartitionedCall/while/body/_109/while/Sigmoid_1", "StatefulPartitionedCall/autocorrect_seq2seq/decoder_lstm/PartitionedCall/while/Func/StatefulPartitionedCall/autocorrect_seq2seq/decoder_lstm/PartitionedCall/input/_28_switch/_143:1"], "attr": {"T": {"type": "DT_FLOAT"}}}, {"name": "StatefulPartitionedCall/autocorrect_seq2seq/decoder_lstm/PartitionedCall/while/body/_109/while/mul_1", "op": "Mul", "input": ["StatefulPartitionedCall/autocorrect_seq2seq/decoder_lstm/PartitionedCall/while/body/_109/while/Sigmoid", "StatefulPartitionedCall/autocorrect_seq2seq/decoder_lstm/PartitionedCall/while/body/_109/while/Tanh"], "attr": {"T": {"type": "DT_FLOAT"}}}, {"name": "StatefulPartitionedCall/autocorrect_seq2seq/decoder_lstm/PartitionedCall/mul_2", "op": "Mul", "input": ["StatefulPartitionedCall/autocorrect_seq2seq/decoder_lstm/PartitionedCall/Sigmoid_2", "StatefulPartitionedCall/autocorrect_seq2seq/decoder_lstm/PartitionedCall/Tanh_1"], "attr": {"T": {"type": "DT_FLOAT"}}}, {"name": "StatefulPartitionedCall/autocorrect_seq2seq/encoder_lstm/PartitionedCall/while/body/_39/while/SelectV2_2", "op": "SelectV2", "input": ["StatefulPartitionedCall/autocorrect_seq2seq/encoder_lstm/PartitionedCall/while/body/_39/while/TensorArrayV2Read_1/TensorListGetItem", "StatefulPartitionedCall/autocorrect_seq2seq/encoder_lstm/PartitionedCall/while/body/_39/while/add_1", "StatefulPartitionedCall/autocorrect_seq2seq/encoder_lstm/PartitionedCall/while/Func/StatefulPartitionedCall/autocorrect_seq2seq/encoder_lstm/PartitionedCall/input/_16_switch/_73:1"], "attr": {"T": {"type": "DT_FLOAT"}}}, {"name": "StatefulPartitionedCall/autocorrect_seq2seq/encoder_lstm/PartitionedCall/while/body/_39/while/Tanh_1", "op": "Tanh", "input": ["StatefulPartitionedCall/autocorrect_seq2seq/encoder_lstm/PartitionedCall/while/body/_39/while/add_1"], "attr": {"T": {"type": "DT_FLOAT"}}}, {"name": "StatefulPartitionedCall/autocorrect_seq2seq/decoder_lstm/PartitionedCall/while/body/_109/while/add_1", "op": "AddV2", "input": ["StatefulPartitionedCall/autocorrect_seq2seq/decoder_lstm/PartitionedCall/while/body/_109/while/mul", "StatefulPartitionedCall/autocorrect_seq2seq/decoder_lstm/PartitionedCall/while/body/_109/while/mul_1"], "attr": {"T": {"type": "DT_FLOAT"}}}, {"name": "StatefulPartitionedCall/autocorrect_seq2seq/decoder_lstm/PartitionedCall/zeros_like", "op": "ZerosLike", "input": ["StatefulPartitionedCall/autocorrect_seq2seq/decoder_lstm/PartitionedCall/mul_2"], "attr": {"T": {"type": "DT_FLOAT"}}}, {"name": "StatefulPartitionedCall/autocorrect_seq2seq/encoder_lstm/PartitionedCall/while/next_iteration/_101", "op": "NextIteration", "input": ["StatefulPartitionedCall/autocorrect_seq2seq/encoder_lstm/PartitionedCall/while/body/_39/while/SelectV2_2", "^StatefulPartitionedCall/autocorrect_seq2seq/encoder_lstm/PartitionedCall/while/loop_body_control/_80"], "attr": {"T": {"type": "DT_FLOAT"}}}, {"name": "StatefulPartitionedCall/autocorrect_seq2seq/encoder_lstm/PartitionedCall/while/body/_39/while/mul_2", "op": "Mul", "input": ["StatefulPartitionedCall/autocorrect_seq2seq/encoder_lstm/PartitionedCall/while/body/_39/while/Sigmoid_2", "StatefulPartitionedCall/autocorrect_seq2seq/encoder_lstm/PartitionedCall/while/body/_39/while/Tanh_1"], "attr": {"T": {"type": "DT_FLOAT"}}}, {"name": "StatefulPartitionedCall/autocorrect_seq2seq/decoder_lstm/PartitionedCall/while/body/_109/while/SelectV2_2", "op": "SelectV2", "input": ["StatefulPartitionedCall/autocorrect_seq2seq/decoder_lstm/PartitionedCall/while/body/_109/while/TensorArrayV2Read_1/TensorListGetItem", "StatefulPartitionedCall/autocorrect_seq2seq/decoder_lstm/PartitionedCall/while/body/_109/while/add_1", "StatefulPartitionedCall/autocorrect_seq2seq/decoder_lstm/PartitionedCall/while/Func/StatefulPartitionedCall/autocorrect_seq2seq/decoder_lstm/PartitionedCall/input/_28_switch/_143:1"], "attr": {"T": {"type": "DT_FLOAT"}}}, {"name": "StatefulPartitionedCall/autocorrect_seq2seq/decoder_lstm/PartitionedCall/while/body/_109/while/Tanh_1", "op": "Tanh", "input": ["StatefulPartitionedCall/autocorrect_seq2seq/decoder_lstm/PartitionedCall/while/body/_109/while/add_1"], "attr": {"T": {"type": "DT_FLOAT"}}}, {"name": "StatefulPartitionedCall/autocorrect_seq2seq/decoder_lstm/PartitionedCall/while/enter/_114", "op": "Enter", "input": ["StatefulPartitionedCall/autocorrect_seq2seq/decoder_lstm/PartitionedCall/zeros_like"], "attr": {"frame_name": {"s": "U3RhdGVmdWxQYXJ0aXRpb25lZENhbGwvYXV0b2NvcnJlY3Rfc2VxMnNlcS9kZWNvZGVyX2xzdG0vUGFydGl0aW9uZWRDYWxsL3doaWxl"}, "parallel_iterations": {"i": "32"}, "T": {"type": "DT_FLOAT"}, "is_constant": {"b": false}}}, {"name": "StatefulPartitionedCall/autocorrect_seq2seq/encoder_lstm/PartitionedCall/while/body/_39/while/SelectV2_1", "op": "SelectV2", "input": ["StatefulPartitionedCall/autocorrect_seq2seq/encoder_lstm/PartitionedCall/while/body/_39/while/TensorArrayV2Read_1/TensorListGetItem", "StatefulPartitionedCall/autocorrect_seq2seq/encoder_lstm/PartitionedCall/while/body/_39/while/mul_2", "StatefulPartitionedCall/autocorrect_seq2seq/encoder_lstm/PartitionedCall/while/Func/StatefulPartitionedCall/autocorrect_seq2seq/encoder_lstm/PartitionedCall/input/_15_switch/_72:1"], "attr": {"T": {"type": "DT_FLOAT"}}}, {"name": "StatefulPartitionedCall/autocorrect_seq2seq/decoder_lstm/PartitionedCall/while/next_iteration/_171", "op": "NextIteration", "input": ["StatefulPartitionedCall/autocorrect_seq2seq/decoder_lstm/PartitionedCall/while/body/_109/while/SelectV2_2", "^StatefulPartitionedCall/autocorrect_seq2seq/decoder_lstm/PartitionedCall/while/loop_body_control/_150"], "attr": {"T": {"type": "DT_FLOAT"}}}, {"name": "StatefulPartitionedCall/autocorrect_seq2seq/decoder_lstm/PartitionedCall/while/body/_109/while/mul_2", "op": "Mul", "input": ["StatefulPartitionedCall/autocorrect_seq2seq/decoder_lstm/PartitionedCall/while/body/_109/while/Sigmoid_2", "StatefulPartitionedCall/autocorrect_seq2seq/decoder_lstm/PartitionedCall/while/body/_109/while/Tanh_1"], "attr": {"T": {"type": "DT_FLOAT"}}}, {"name": "StatefulPartitionedCall/autocorrect_seq2seq/decoder_lstm/PartitionedCall/while/merge/_127", "op": "Merge", "input": ["StatefulPartitionedCall/autocorrect_seq2seq/decoder_lstm/PartitionedCall/while/enter/_114", "StatefulPartitionedCall/autocorrect_seq2seq/decoder_lstm/PartitionedCall/while/next_iteration/_169"], "attr": {"N": {"i": "2"}, "T": {"type": "DT_FLOAT"}}}, {"name": "StatefulPartitionedCall/autocorrect_seq2seq/encoder_lstm/PartitionedCall/while/next_iteration/_100", "op": "NextIteration", "input": ["StatefulPartitionedCall/autocorrect_seq2seq/encoder_lstm/PartitionedCall/while/body/_39/while/SelectV2_1", "^StatefulPartitionedCall/autocorrect_seq2seq/encoder_lstm/PartitionedCall/while/loop_body_control/_80"], "attr": {"T": {"type": "DT_FLOAT"}}}, {"name": "StatefulPartitionedCall/autocorrect_seq2seq/decoder_lstm/PartitionedCall/while/body/_109/while/SelectV2_1", "op": "SelectV2", "input": ["StatefulPartitionedCall/autocorrect_seq2seq/decoder_lstm/PartitionedCall/while/body/_109/while/TensorArrayV2Read_1/TensorListGetItem", "StatefulPartitionedCall/autocorrect_seq2seq/decoder_lstm/PartitionedCall/while/body/_109/while/mul_2", "StatefulPartitionedCall/autocorrect_seq2seq/decoder_lstm/PartitionedCall/while/Func/StatefulPartitionedCall/autocorrect_seq2seq/decoder_lstm/PartitionedCall/input/_27_switch/_142:1"], "attr": {"T": {"type": "DT_FLOAT"}}}, {"name": "StatefulPartitionedCall/autocorrect_seq2seq/decoder_lstm/PartitionedCall/while/StatefulPartitionedCall/autocorrect_seq2seq/decoder_lstm/PartitionedCall/zeros_like_switch/_141", "op": "Switch", "input": ["StatefulPartitionedCall/autocorrect_seq2seq/decoder_lstm/PartitionedCall/while/merge/_127", "StatefulPartitionedCall/autocorrect_seq2seq/decoder_lstm/PartitionedCall/while/LoopCond/_136"], "attr": {"T": {"type": "DT_FLOAT"}}}, {"name": "StatefulPartitionedCall/autocorrect_seq2seq/decoder_lstm/PartitionedCall/while/next_iteration/_170", "op": "NextIteration", "input": ["StatefulPartitionedCall/autocorrect_seq2seq/decoder_lstm/PartitionedCall/while/body/_109/while/SelectV2_1", "^StatefulPartitionedCall/autocorrect_seq2seq/decoder_lstm/PartitionedCall/while/loop_body_control/_150"], "attr": {"T": {"type": "DT_FLOAT"}}}, {"name": "StatefulPartitionedCall/autocorrect_seq2seq/decoder_lstm/PartitionedCall/while/body/_109/while/SelectV2", "op": "SelectV2", "input": ["StatefulPartitionedCall/autocorrect_seq2seq/decoder_lstm/PartitionedCall/while/body/_109/while/TensorArrayV2Read_1/TensorListGetItem", "StatefulPartitionedCall/autocorrect_seq2seq/decoder_lstm/PartitionedCall/while/body/_109/while/mul_2", "StatefulPartitionedCall/autocorrect_seq2seq/decoder_lstm/PartitionedCall/while/StatefulPartitionedCall/autocorrect_seq2seq/decoder_lstm/PartitionedCall/zeros_like_switch/_141:1"], "attr": {"T": {"type": "DT_FLOAT"}}}, {"name": "StatefulPartitionedCall/autocorrect_seq2seq/decoder_lstm/PartitionedCall/while/next_iteration/_169", "op": "NextIteration", "input": ["StatefulPartitionedCall/autocorrect_seq2seq/decoder_lstm/PartitionedCall/while/body/_109/while/SelectV2", "^StatefulPartitionedCall/autocorrect_seq2seq/decoder_lstm/PartitionedCall/while/loop_body_control/_150"], "attr": {"T": {"type": "DT_FLOAT"}}}, {"name": "StatefulPartitionedCall/autocorrect_seq2seq/decoder_lstm/PartitionedCall/while/body/_109/while/TensorArrayV2Write/TensorListSetItem", "op": "TensorListSetItem", "input": ["StatefulPartitionedCall/autocorrect_seq2seq/decoder_lstm/PartitionedCall/while/StatefulPartitionedCall/autocorrect_seq2seq/decoder_lstm/PartitionedCall/TensorArrayV2_1_switch/_140:1", "Func/StatefulPartitionedCall/autocorrect_seq2seq/decoder_lstm/PartitionedCall/while/body/_109/input/_239", "StatefulPartitionedCall/autocorrect_seq2seq/decoder_lstm/PartitionedCall/while/body/_109/while/SelectV2"], "attr": {"element_dtype": {"type": "DT_FLOAT"}}, "experimentalType": {"typeId": "TFT_PRODUCT", "args": [{"typeId": "TFT_ARRAY", "args": [{"typeId": "TFT_TENSOR", "args": [{"typeId": "TFT_FLOAT"}]}]}]}}, {"name": "StatefulPartitionedCall/autocorrect_seq2seq/decoder_lstm/PartitionedCall/while/next_iteration/_168", "op": "NextIteration", "input": ["StatefulPartitionedCall/autocorrect_seq2seq/decoder_lstm/PartitionedCall/while/body/_109/while/TensorArrayV2Write/TensorListSetItem", "^StatefulPartitionedCall/autocorrect_seq2seq/decoder_lstm/PartitionedCall/while/loop_body_control/_150"], "attr": {"T": {"type": "DT_VARIANT"}}}], "library": {}, "versions": {"producer": 1205}}, "weightsManifest": [{"paths": ["group1-shard1of4.bin", "group1-shard2of4.bin", "group1-shard3of4.bin", "group1-shard4of4.bin"], "weights": [{"name": "StatefulPartitionedCall/autocorrect_seq2seq/decoder_lstm/PartitionedCall/TensorArrayV2_1/element_shape", "shape": [2], "dtype": "int32"}, {"name": "StatefulPartitionedCall/autocorrect_seq2seq/decoder_lstm/PartitionedCall/TensorArrayUnstack/TensorListFromTensor/element_shape", "shape": [2], "dtype": "int32"}, {"name": "StatefulPartitionedCall/autocorrect_seq2seq/decoder_embedding/NotEqual/y", "shape": [], "dtype": "float32"}, {"name": "StatefulPartitionedCall/autocorrect_seq2seq/decoder_lstm/PartitionedCall/ExpandDims/dim", "shape": [], "dtype": "int32"}, {"name": "StatefulPartitionedCall/autocorrect_seq2seq/decoder_lstm/PartitionedCall/transpose_1/perm", "shape": [3], "dtype": "int32"}, {"name": "StatefulPartitionedCall/autocorrect_seq2seq/decoder_lstm/PartitionedCall/TensorArrayUnstack_1/TensorListFromTensor/element_shape", "shape": [2], "dtype": "int32"}, {"name": "StatefulPartitionedCall/autocorrect_seq2seq/decoder_lstm/PartitionedCall/split/split_dim", "shape": [], "dtype": "int32"}, {"name": "StatefulPartitionedCall/autocorrect_seq2seq/decoder_lstm/PartitionedCall/strided_slice_1/stack", "shape": [1], "dtype": "int32"}, {"name": "StatefulPartitionedCall/autocorrect_seq2seq/decoder_lstm/PartitionedCall/strided_slice_1/stack_1", "shape": [1], "dtype": "int32"}, {"name": "StatefulPartitionedCall/autocorrect_seq2seq/decoder_lstm/PartitionedCall/strided_slice_1/stack_2", "shape": [1], "dtype": "int32"}, {"name": "StatefulPartitionedCall/autocorrect_seq2seq/decoder_lstm/Read/ReadVariableOp", "shape": [256, 2048], "dtype": "float32"}, {"name": "StatefulPartitionedCall/autocorrect_seq2seq/encoder_lstm/zeros/packed/1", "shape": [], "dtype": "int32"}, {"name": "StatefulPartitionedCall/autocorrect_seq2seq/encoder_lstm/zeros/Const", "shape": [], "dtype": "float32"}, {"name": "StatefulPartitionedCall/autocorrect_seq2seq/encoder_lstm/strided_slice/stack", "shape": [1], "dtype": "int32"}, {"name": "StatefulPartitionedCall/autocorrect_seq2seq/encoder_lstm/strided_slice/stack_1", "shape": [1], "dtype": "int32"}, {"name": "StatefulPartitionedCall/autocorrect_seq2seq/encoder_lstm/strided_slice/stack_2", "shape": [1], "dtype": "int32"}, {"name": "StatefulPartitionedCall/autocorrect_seq2seq/encoder_lstm/zeros_1/packed/1", "shape": [], "dtype": "int32"}, {"name": "StatefulPartitionedCall/autocorrect_seq2seq/encoder_lstm/zeros_1/Const", "shape": [], "dtype": "float32"}, {"name": "StatefulPartitionedCall/autocorrect_seq2seq/encoder_embedding/NotEqual/y", "shape": [], "dtype": "float32"}, {"name": "StatefulPartitionedCall/autocorrect_seq2seq/encoder_lstm/PartitionedCall/ExpandDims/dim", "shape": [], "dtype": "int32"}, {"name": "StatefulPartitionedCall/autocorrect_seq2seq/encoder_lstm/PartitionedCall/transpose_1/perm", "shape": [3], "dtype": "int32"}, {"name": "StatefulPartitionedCall/autocorrect_seq2seq/encoder_lstm/PartitionedCall/TensorArrayUnstack_1/TensorListFromTensor/element_shape", "shape": [2], "dtype": "int32"}, {"name": "StatefulPartitionedCall/autocorrect_seq2seq/encoder_lstm/PartitionedCall/TensorArrayUnstack/TensorListFromTensor/element_shape", "shape": [2], "dtype": "int32"}, {"name": "StatefulPartitionedCall/autocorrect_seq2seq/encoder_lstm/Read/ReadVariableOp", "shape": [256, 2048], "dtype": "float32"}, {"name": "StatefulPartitionedCall/autocorrect_seq2seq/encoder_lstm/Read_1/ReadVariableOp", "shape": [512, 2048], "dtype": "float32"}, {"name": "StatefulPartitionedCall/autocorrect_seq2seq/encoder_lstm/Read_2/ReadVariableOp", "shape": [2048], "dtype": "float32"}, {"name": "StatefulPartitionedCall/autocorrect_seq2seq/encoder_lstm/PartitionedCall/time", "shape": [], "dtype": "int32"}, {"name": "StatefulPartitionedCall/autocorrect_seq2seq/encoder_lstm/PartitionedCall/transpose/perm", "shape": [3], "dtype": "int32"}, {"name": "StatefulPartitionedCall/autocorrect_seq2seq/encoder_lstm/PartitionedCall/strided_slice/stack", "shape": [1], "dtype": "int32"}, {"name": "StatefulPartitionedCall/autocorrect_seq2seq/encoder_lstm/PartitionedCall/strided_slice/stack_1", "shape": [1], "dtype": "int32"}, {"name": "StatefulPartitionedCall/autocorrect_seq2seq/encoder_lstm/PartitionedCall/strided_slice/stack_2", "shape": [1], "dtype": "int32"}, {"name": "StatefulPartitionedCall/autocorrect_seq2seq/encoder_lstm/PartitionedCall/while/loop_counter", "shape": [], "dtype": "int32"}, {"name": "StatefulPartitionedCall/autocorrect_seq2seq/decoder_lstm/Read_1/ReadVariableOp", "shape": [512, 2048], "dtype": "float32"}, {"name": "StatefulPartitionedCall/autocorrect_seq2seq/decoder_lstm/Read_2/ReadVariableOp", "shape": [2048], "dtype": "float32"}, {"name": "StatefulPartitionedCall/autocorrect_seq2seq/decoder_lstm/PartitionedCall/time", "shape": [], "dtype": "int32"}, {"name": "StatefulPartitionedCall/autocorrect_seq2seq/decoder_lstm/PartitionedCall/transpose/perm", "shape": [3], "dtype": "int32"}, {"name": "StatefulPartitionedCall/autocorrect_seq2seq/decoder_lstm/PartitionedCall/strided_slice/stack", "shape": [1], "dtype": "int32"}, {"name": "StatefulPartitionedCall/autocorrect_seq2seq/decoder_lstm/PartitionedCall/strided_slice/stack_1", "shape": [1], "dtype": "int32"}, {"name": "StatefulPartitionedCall/autocorrect_seq2seq/decoder_lstm/PartitionedCall/strided_slice/stack_2", "shape": [1], "dtype": "int32"}, {"name": "StatefulPartitionedCall/autocorrect_seq2seq/decoder_lstm/PartitionedCall/while/loop_counter", "shape": [], "dtype": "int32"}, {"name": "StatefulPartitionedCall/autocorrect_seq2seq/decoder_lstm/PartitionedCall/TensorArrayV2Stack/TensorListStack/element_shape", "shape": [2], "dtype": "int32"}, {"name": "StatefulPartitionedCall/autocorrect_seq2seq/decoder_lstm/PartitionedCall/transpose_2/perm", "shape": [3], "dtype": "int32"}, {"name": "StatefulPartitionedCall/autocorrect_seq2seq/output_dense/Reshape/shape", "shape": [2], "dtype": "int32"}, {"name": "StatefulPartitionedCall/autocorrect_seq2seq/output_dense/dense/MatMul/ReadVariableOp", "shape": [512, 30], "dtype": "float32"}, {"name": "StatefulPartitionedCall/autocorrect_seq2seq/output_dense/dense/BiasAdd/ReadVariableOp", "shape": [30], "dtype": "float32"}, {"name": "StatefulPartitionedCall/autocorrect_seq2seq/output_dense/Reshape_1/shape", "shape": [3], "dtype": "int32"}, {"name": "unknown_0", "shape": [30, 256], "dtype": "float32"}, {"name": "StatefulPartitionedCall/autocorrect_seq2seq/decoder_embedding/embedding_lookup/axis", "shape": [], "dtype": "int32"}, {"name": "unknown", "shape": [30, 256], "dtype": "float32"}, {"name": "StatefulPartitionedCall/autocorrect_seq2seq/encoder_embedding/embedding_lookup/axis", "shape": [], "dtype": "int32"}, {"name": "StatefulPartitionedCall/autocorrect_seq2seq/decoder_lstm/PartitionedCall/while/body/_109/while/split/split_dim", "shape": [], "dtype": "int32"}, {"name": "StatefulPartitionedCall/autocorrect_seq2seq/decoder_lstm/PartitionedCall/while/body/_109/while/TensorArrayV2Read/TensorListGetItem/element_shape", "shape": [2], "dtype": "int32"}, {"name": "StatefulPartitionedCall/autocorrect_seq2seq/decoder_lstm/PartitionedCall/while/body/_109/while/TensorArrayV2Read_1/TensorListGetItem/element_shape", "shape": [2], "dtype": "int32"}, {"name": "StatefulPartitionedCall/autocorrect_seq2seq/decoder_lstm/PartitionedCall/while/body/_109/while/add_2/y", "shape": [], "dtype": "int32"}, {"name": "StatefulPartitionedCall/autocorrect_seq2seq/decoder_lstm/PartitionedCall/while/body/_109/while/add_3/y", "shape": [], "dtype": "int32"}, {"name": "StatefulPartitionedCall/autocorrect_seq2seq/encoder_lstm/PartitionedCall/while/body/_39/while/TensorArrayV2Read_1/TensorListGetItem/element_shape", "shape": [2], "dtype": "int32"}, {"name": "StatefulPartitionedCall/autocorrect_seq2seq/encoder_lstm/PartitionedCall/while/body/_39/while/split/split_dim", "shape": [], "dtype": "int32"}, {"name": "StatefulPartitionedCall/autocorrect_seq2seq/encoder_lstm/PartitionedCall/while/body/_39/while/TensorArrayV2Read/TensorListGetItem/element_shape", "shape": [2], "dtype": "int32"}, {"name": "StatefulPartitionedCall/autocorrect_seq2seq/encoder_lstm/PartitionedCall/while/body/_39/while/add_2/y", "shape": [], "dtype": "int32"}, {"name": "StatefulPartitionedCall/autocorrect_seq2seq/encoder_lstm/PartitionedCall/while/body/_39/while/add_3/y", "shape": [], "dtype": "int32"}]}]}